{"format": "graph-model", "generatedBy": "2.8.2", "convertedBy": "TensorFlow.js Converter v3.18.0", "signature": {"outputs": {"ResizeBilinear_2": {"name": "ResizeBilinear_2"}}}, "modelTopology": {"node": [{"name": "ResizeBilinear/size", "op": "Const", "attr": {"value": {"tensor": {"dtype": "DT_INT32", "tensorShape": {"dim": [{"size": "2"}]}}}, "dtype": {"type": "DT_INT32"}}}, {"name": "MobilenetV2/expanded_conv_15/depthwise/depthwise/SpaceToBatchND/block_shape", "op": "Const", "attr": {"dtype": {"type": "DT_INT32"}, "value": {"tensor": {"dtype": "DT_INT32", "tensorShape": {"dim": [{"size": "2"}]}}}}}, {"name": "MobilenetV2/expanded_conv_15/depthwise/depthwise/SpaceToBatchND/paddings", "op": "Const", "attr": {"value": {"tensor": {"dtype": "DT_INT32", "tensorShape": {"dim": [{"size": "2"}, {"size": "2"}]}}}, "dtype": {"type": "DT_INT32"}}}, {"name": "MobilenetV2/expanded_conv_15/depthwise/depthwise_weights", "op": "Const", "attr": {"dtype": {"type": "DT_FLOAT"}, "value": {"tensor": {"dtype": "DT_FLOAT", "tensorShape": {"dim": [{"size": "3"}, {"size": "3"}, {"size": "480"}, {"size": "1"}]}}}}}, {"name": "MobilenetV2/expanded_conv_15/depthwise/depthwise/BatchToSpaceND/block_shape", "op": "Const", "attr": {"value": {"tensor": {"dtype": "DT_INT32", "tensorShape": {"dim": [{"size": "2"}]}}}, "dtype": {"type": "DT_INT32"}}}, {"name": "MobilenetV2/expanded_conv_15/depthwise/depthwise/BatchToSpaceND/crops", "op": "Const", "attr": {"value": {"tensor": {"dtype": "DT_INT32", "tensorShape": {"dim": [{"size": "2"}, {"size": "2"}]}}}, "dtype": {"type": "DT_INT32"}}}, {"name": "MobilenetV2/expanded_conv_14/depthwise/depthwise/SpaceToBatchND/block_shape", "op": "Const", "attr": {"value": {"tensor": {"dtype": "DT_INT32", "tensorShape": {"dim": [{"size": "2"}]}}}, "dtype": {"type": "DT_INT32"}}}, {"name": "MobilenetV2/expanded_conv_14/depthwise/depthwise/SpaceToBatchND/paddings", "op": "Const", "attr": {"value": {"tensor": {"dtype": "DT_INT32", "tensorShape": {"dim": [{"size": "2"}, {"size": "2"}]}}}, "dtype": {"type": "DT_INT32"}}}, {"name": "MobilenetV2/expanded_conv_14/depthwise/depthwise_weights", "op": "Const", "attr": {"value": {"tensor": {"dtype": "DT_FLOAT", "tensorShape": {"dim": [{"size": "3"}, {"size": "3"}, {"size": "480"}, {"size": "1"}]}}}, "dtype": {"type": "DT_FLOAT"}}}, {"name": "MobilenetV2/expanded_conv_14/depthwise/depthwise/BatchToSpaceND/block_shape", "op": "Const", "attr": {"dtype": {"type": "DT_INT32"}, "value": {"tensor": {"dtype": "DT_INT32", "tensorShape": {"dim": [{"size": "2"}]}}}}}, {"name": "MobilenetV2/expanded_conv_14/depthwise/depthwise/BatchToSpaceND/crops", "op": "Const", "attr": {"value": {"tensor": {"dtype": "DT_INT32", "tensorShape": {"dim": [{"size": "2"}, {"size": "2"}]}}}, "dtype": {"type": "DT_INT32"}}}, {"name": "MobilenetV2/expanded_conv_12/depthwise/depthwise/SpaceToBatchND/block_shape", "op": "Const", "attr": {"value": {"tensor": {"dtype": "DT_INT32", "tensorShape": {"dim": [{"size": "2"}]}}}, "dtype": {"type": "DT_INT32"}}}, {"name": "MobilenetV2/expanded_conv_12/depthwise/depthwise/SpaceToBatchND/paddings", "op": "Const", "attr": {"value": {"tensor": {"dtype": "DT_INT32", "tensorShape": {"dim": [{"size": "2"}, {"size": "2"}]}}}, "dtype": {"type": "DT_INT32"}}}, {"name": "MobilenetV2/expanded_conv_12/depthwise/depthwise_weights", "op": "Const", "attr": {"value": {"tensor": {"dtype": "DT_FLOAT", "tensorShape": {"dim": [{"size": "3"}, {"size": "3"}, {"size": "288"}, {"size": "1"}]}}}, "dtype": {"type": "DT_FLOAT"}}}, {"name": "MobilenetV2/expanded_conv_12/depthwise/depthwise/BatchToSpaceND/block_shape", "op": "Const", "attr": {"dtype": {"type": "DT_INT32"}, "value": {"tensor": {"dtype": "DT_INT32", "tensorShape": {"dim": [{"size": "2"}]}}}}}, {"name": "MobilenetV2/expanded_conv_12/depthwise/depthwise/BatchToSpaceND/crops", "op": "Const", "attr": {"value": {"tensor": {"dtype": "DT_INT32", "tensorShape": {"dim": [{"size": "2"}, {"size": "2"}]}}}, "dtype": {"type": "DT_INT32"}}}, {"name": "MobilenetV2/expanded_conv_11/depthwise/depthwise/SpaceToBatchND/block_shape", "op": "Const", "attr": {"value": {"tensor": {"dtype": "DT_INT32", "tensorShape": {"dim": [{"size": "2"}]}}}, "dtype": {"type": "DT_INT32"}}}, {"name": "MobilenetV2/expanded_conv_11/depthwise/depthwise/SpaceToBatchND/paddings", "op": "Const", "attr": {"dtype": {"type": "DT_INT32"}, "value": {"tensor": {"dtype": "DT_INT32", "tensorShape": {"dim": [{"size": "2"}, {"size": "2"}]}}}}}, {"name": "MobilenetV2/expanded_conv_11/depthwise/depthwise_weights", "op": "Const", "attr": {"dtype": {"type": "DT_FLOAT"}, "value": {"tensor": {"dtype": "DT_FLOAT", "tensorShape": {"dim": [{"size": "3"}, {"size": "3"}, {"size": "288"}, {"size": "1"}]}}}}}, {"name": "MobilenetV2/expanded_conv_11/depthwise/depthwise/BatchToSpaceND/block_shape", "op": "Const", "attr": {"value": {"tensor": {"dtype": "DT_INT32", "tensorShape": {"dim": [{"size": "2"}]}}}, "dtype": {"type": "DT_INT32"}}}, {"name": "MobilenetV2/expanded_conv_11/depthwise/depthwise/BatchToSpaceND/crops", "op": "Const", "attr": {"value": {"tensor": {"dtype": "DT_INT32", "tensorShape": {"dim": [{"size": "2"}, {"size": "2"}]}}}, "dtype": {"type": "DT_INT32"}}}, {"name": "MobilenetV2/expanded_conv_9/depthwise/depthwise/SpaceToBatchND/block_shape", "op": "Const", "attr": {"dtype": {"type": "DT_INT32"}, "value": {"tensor": {"dtype": "DT_INT32", "tensorShape": {"dim": [{"size": "2"}]}}}}}, {"name": "MobilenetV2/expanded_conv_9/depthwise/depthwise/SpaceToBatchND/paddings", "op": "Const", "attr": {"value": {"tensor": {"dtype": "DT_INT32", "tensorShape": {"dim": [{"size": "2"}, {"size": "2"}]}}}, "dtype": {"type": "DT_INT32"}}}, {"name": "MobilenetV2/expanded_conv_9/depthwise/depthwise_weights", "op": "Const", "attr": {"value": {"tensor": {"dtype": "DT_FLOAT", "tensorShape": {"dim": [{"size": "3"}, {"size": "3"}, {"size": "192"}, {"size": "1"}]}}}, "dtype": {"type": "DT_FLOAT"}}}, {"name": "MobilenetV2/expanded_conv_9/depthwise/depthwise/BatchToSpaceND/block_shape", "op": "Const", "attr": {"dtype": {"type": "DT_INT32"}, "value": {"tensor": {"dtype": "DT_INT32", "tensorShape": {"dim": [{"size": "2"}]}}}}}, {"name": "MobilenetV2/expanded_conv_9/depthwise/depthwise/BatchToSpaceND/crops", "op": "Const", "attr": {"value": {"tensor": {"dtype": "DT_INT32", "tensorShape": {"dim": [{"size": "2"}, {"size": "2"}]}}}, "dtype": {"type": "DT_INT32"}}}, {"name": "MobilenetV2/expanded_conv_8/depthwise/depthwise/SpaceToBatchND/block_shape", "op": "Const", "attr": {"value": {"tensor": {"dtype": "DT_INT32", "tensorShape": {"dim": [{"size": "2"}]}}}, "dtype": {"type": "DT_INT32"}}}, {"name": "MobilenetV2/expanded_conv_8/depthwise/depthwise/SpaceToBatchND/paddings", "op": "Const", "attr": {"value": {"tensor": {"dtype": "DT_INT32", "tensorShape": {"dim": [{"size": "2"}, {"size": "2"}]}}}, "dtype": {"type": "DT_INT32"}}}, {"name": "MobilenetV2/expanded_conv_8/depthwise/depthwise_weights", "op": "Const", "attr": {"value": {"tensor": {"dtype": "DT_FLOAT", "tensorShape": {"dim": [{"size": "3"}, {"size": "3"}, {"size": "192"}, {"size": "1"}]}}}, "dtype": {"type": "DT_FLOAT"}}}, {"name": "MobilenetV2/expanded_conv_8/depthwise/depthwise/BatchToSpaceND/block_shape", "op": "Const", "attr": {"dtype": {"type": "DT_INT32"}, "value": {"tensor": {"dtype": "DT_INT32", "tensorShape": {"dim": [{"size": "2"}]}}}}}, {"name": "MobilenetV2/expanded_conv_8/depthwise/depthwise/BatchToSpaceND/crops", "op": "Const", "attr": {"value": {"tensor": {"dtype": "DT_INT32", "tensorShape": {"dim": [{"size": "2"}, {"size": "2"}]}}}, "dtype": {"type": "DT_INT32"}}}, {"name": "MobilenetV2/expanded_conv_7/depthwise/depthwise/SpaceToBatchND/block_shape", "op": "Const", "attr": {"dtype": {"type": "DT_INT32"}, "value": {"tensor": {"dtype": "DT_INT32", "tensorShape": {"dim": [{"size": "2"}]}}}}}, {"name": "MobilenetV2/expanded_conv_7/depthwise/depthwise/SpaceToBatchND/paddings", "op": "Const", "attr": {"value": {"tensor": {"dtype": "DT_INT32", "tensorShape": {"dim": [{"size": "2"}, {"size": "2"}]}}}, "dtype": {"type": "DT_INT32"}}}, {"name": "MobilenetV2/expanded_conv_7/depthwise/depthwise_weights", "op": "Const", "attr": {"value": {"tensor": {"dtype": "DT_FLOAT", "tensorShape": {"dim": [{"size": "3"}, {"size": "3"}, {"size": "192"}, {"size": "1"}]}}}, "dtype": {"type": "DT_FLOAT"}}}, {"name": "MobilenetV2/expanded_conv_7/depthwise/depthwise/BatchToSpaceND/block_shape", "op": "Const", "attr": {"value": {"tensor": {"dtype": "DT_INT32", "tensorShape": {"dim": [{"size": "2"}]}}}, "dtype": {"type": "DT_INT32"}}}, {"name": "MobilenetV2/expanded_conv_7/depthwise/depthwise/BatchToSpaceND/crops", "op": "Const", "attr": {"value": {"tensor": {"dtype": "DT_INT32", "tensorShape": {"dim": [{"size": "2"}, {"size": "2"}]}}}, "dtype": {"type": "DT_INT32"}}}, {"name": "mul/x", "op": "Const", "attr": {"dtype": {"type": "DT_FLOAT"}, "value": {"tensor": {"dtype": "DT_FLOAT", "tensorShape": {}}}}}, {"name": "stack/0", "op": "Const", "attr": {"dtype": {"type": "DT_INT32"}, "value": {"tensor": {"dtype": "DT_INT32", "tensorShape": {}}}}}, {"name": "sub/x", "op": "Const", "attr": {"dtype": {"type": "DT_INT32"}, "value": {"tensor": {"dtype": "DT_INT32", "tensorShape": {}}}}}, {"name": "strided_slice_1/stack", "op": "Const", "attr": {"value": {"tensor": {"dtype": "DT_INT32", "tensorShape": {"dim": [{"size": "1"}]}}}, "dtype": {"type": "DT_INT32"}}}, {"name": "strided_slice_1/stack_1", "op": "Const", "attr": {"dtype": {"type": "DT_INT32"}, "value": {"tensor": {"dtype": "DT_INT32", "tensorShape": {"dim": [{"size": "1"}]}}}}}, {"name": "strided_slice_1/stack_2", "op": "Const", "attr": {"dtype": {"type": "DT_INT32"}, "value": {"tensor": {"dtype": "DT_INT32", "tensorShape": {"dim": [{"size": "1"}]}}}}}, {"name": "Maximum/y", "op": "Const", "attr": {"value": {"tensor": {"dtype": "DT_INT32", "tensorShape": {}}}, "dtype": {"type": "DT_INT32"}}}, {"name": "strided_slice_3/stack", "op": "Const", "attr": {"dtype": {"type": "DT_INT32"}, "value": {"tensor": {"dtype": "DT_INT32", "tensorShape": {"dim": [{"size": "1"}]}}}}}, {"name": "strided_slice_3/stack_1", "op": "Const", "attr": {"dtype": {"type": "DT_INT32"}, "value": {"tensor": {"dtype": "DT_INT32", "tensorShape": {"dim": [{"size": "1"}]}}}}}, {"name": "strided_slice_3/stack_2", "op": "Const", "attr": {"dtype": {"type": "DT_INT32"}, "value": {"tensor": {"dtype": "DT_INT32", "tensorShape": {"dim": [{"size": "1"}]}}}}}, {"name": "stack_1/0", "op": "Const", "attr": {"dtype": {"type": "DT_INT32"}, "value": {"tensor": {"dtype": "DT_INT32", "tensorShape": {}}}}}, {"name": "sub_1/x", "op": "Const", "attr": {"value": {"tensor": {"dtype": "DT_INT32", "tensorShape": {}}}, "dtype": {"type": "DT_INT32"}}}, {"name": "strided_slice_2/stack", "op": "Const", "attr": {"dtype": {"type": "DT_INT32"}, "value": {"tensor": {"dtype": "DT_INT32", "tensorShape": {"dim": [{"size": "1"}]}}}}}, {"name": "strided_slice_2/stack_1", "op": "Const", "attr": {"dtype": {"type": "DT_INT32"}, "value": {"tensor": {"dtype": "DT_INT32", "tensorShape": {"dim": [{"size": "1"}]}}}}}, {"name": "strided_slice_2/stack_2", "op": "Const", "attr": {"dtype": {"type": "DT_INT32"}, "value": {"tensor": {"dtype": "DT_INT32", "tensorShape": {"dim": [{"size": "1"}]}}}}}, {"name": "Maximum_1/y", "op": "Const", "attr": {"value": {"tensor": {"dtype": "DT_INT32", "tensorShape": {}}}, "dtype": {"type": "DT_INT32"}}}, {"name": "ImageTensor", "op": "Placeholder", "attr": {"shape": {"shape": {"dim": [{"size": "1"}, {"size": "-1"}, {"size": "-1"}, {"size": "3"}]}}, "dtype": {"type": "DT_UINT8"}}}, {"name": "strided_slice_4/stack", "op": "Const", "attr": {"dtype": {"type": "DT_INT32"}, "value": {"tensor": {"dtype": "DT_INT32", "tensorShape": {"dim": [{"size": "1"}]}}}}}, {"name": "strided_slice_4/stack_1", "op": "Const", "attr": {"value": {"tensor": {"dtype": "DT_INT32", "tensorShape": {"dim": [{"size": "1"}]}}}, "dtype": {"type": "DT_INT32"}}}, {"name": "strided_slice_4/stack_2", "op": "Const", "attr": {"dtype": {"type": "DT_INT32"}, "value": {"tensor": {"dtype": "DT_INT32", "tensorShape": {"dim": [{"size": "1"}]}}}}}, {"name": "stack_2", "op": "Const", "attr": {"dtype": {"type": "DT_INT32"}, "value": {"tensor": {"dtype": "DT_INT32", "tensorShape": {"dim": [{"size": "2"}]}}}}}, {"name": "Reshape", "op": "Const", "attr": {"dtype": {"type": "DT_FLOAT"}, "value": {"tensor": {"dtype": "DT_FLOAT", "tensorShape": {"dim": [{"size": "1"}, {"size": "1"}, {"size": "3"}]}}}}}, {"name": "ExpandDims/dim", "op": "Const", "attr": {"value": {"tensor": {"dtype": "DT_INT32", "tensorShape": {}}}, "dtype": {"type": "DT_INT32"}}}, {"name": "sub_7/y", "op": "Const", "attr": {"value": {"tensor": {"dtype": "DT_FLOAT", "tensorShape": {}}}, "dtype": {"type": "DT_FLOAT"}}}, {"name": "MobilenetV2/expanded_conv_10/depthwise/depthwise/SpaceToBatchND/block_shape", "op": "Const", "attr": {"value": {"tensor": {"dtype": "DT_INT32", "tensorShape": {"dim": [{"size": "2"}]}}}, "dtype": {"type": "DT_INT32"}}}, {"name": "MobilenetV2/expanded_conv_10/depthwise/depthwise/SpaceToBatchND/paddings", "op": "Const", "attr": {"value": {"tensor": {"dtype": "DT_INT32", "tensorShape": {"dim": [{"size": "2"}, {"size": "2"}]}}}, "dtype": {"type": "DT_INT32"}}}, {"name": "MobilenetV2/expanded_conv_10/depthwise/depthwise_weights", "op": "Const", "attr": {"dtype": {"type": "DT_FLOAT"}, "value": {"tensor": {"dtype": "DT_FLOAT", "tensorShape": {"dim": [{"size": "3"}, {"size": "3"}, {"size": "192"}, {"size": "1"}]}}}}}, {"name": "MobilenetV2/expanded_conv_10/depthwise/depthwise/BatchToSpaceND/block_shape", "op": "Const", "attr": {"dtype": {"type": "DT_INT32"}, "value": {"tensor": {"dtype": "DT_INT32", "tensorShape": {"dim": [{"size": "2"}]}}}}}, {"name": "MobilenetV2/expanded_conv_10/depthwise/depthwise/BatchToSpaceND/crops", "op": "Const", "attr": {"dtype": {"type": "DT_INT32"}, "value": {"tensor": {"dtype": "DT_INT32", "tensorShape": {"dim": [{"size": "2"}, {"size": "2"}]}}}}}, {"name": "MobilenetV2/expanded_conv_13/depthwise/depthwise/SpaceToBatchND/block_shape", "op": "Const", "attr": {"value": {"tensor": {"dtype": "DT_INT32", "tensorShape": {"dim": [{"size": "2"}]}}}, "dtype": {"type": "DT_INT32"}}}, {"name": "MobilenetV2/expanded_conv_13/depthwise/depthwise/SpaceToBatchND/paddings", "op": "Const", "attr": {"value": {"tensor": {"dtype": "DT_INT32", "tensorShape": {"dim": [{"size": "2"}, {"size": "2"}]}}}, "dtype": {"type": "DT_INT32"}}}, {"name": "MobilenetV2/expanded_conv_13/depthwise/depthwise_weights", "op": "Const", "attr": {"value": {"tensor": {"dtype": "DT_FLOAT", "tensorShape": {"dim": [{"size": "3"}, {"size": "3"}, {"size": "288"}, {"size": "1"}]}}}, "dtype": {"type": "DT_FLOAT"}}}, {"name": "MobilenetV2/expanded_conv_13/depthwise/depthwise/BatchToSpaceND/block_shape", "op": "Const", "attr": {"dtype": {"type": "DT_INT32"}, "value": {"tensor": {"dtype": "DT_INT32", "tensorShape": {"dim": [{"size": "2"}]}}}}}, {"name": "MobilenetV2/expanded_conv_13/depthwise/depthwise/BatchToSpaceND/crops", "op": "Const", "attr": {"value": {"tensor": {"dtype": "DT_INT32", "tensorShape": {"dim": [{"size": "2"}, {"size": "2"}]}}}, "dtype": {"type": "DT_INT32"}}}, {"name": "MobilenetV2/expanded_conv_16/depthwise/depthwise/SpaceToBatchND/block_shape", "op": "Const", "attr": {"value": {"tensor": {"dtype": "DT_INT32", "tensorShape": {"dim": [{"size": "2"}]}}}, "dtype": {"type": "DT_INT32"}}}, {"name": "MobilenetV2/expanded_conv_16/depthwise/depthwise/SpaceToBatchND/paddings", "op": "Const", "attr": {"value": {"tensor": {"dtype": "DT_INT32", "tensorShape": {"dim": [{"size": "2"}, {"size": "2"}]}}}, "dtype": {"type": "DT_INT32"}}}, {"name": "MobilenetV2/expanded_conv_16/depthwise/depthwise_weights", "op": "Const", "attr": {"value": {"tensor": {"dtype": "DT_FLOAT", "tensorShape": {"dim": [{"size": "3"}, {"size": "3"}, {"size": "480"}, {"size": "1"}]}}}, "dtype": {"type": "DT_FLOAT"}}}, {"name": "MobilenetV2/expanded_conv_16/depthwise/depthwise/BatchToSpaceND/block_shape", "op": "Const", "attr": {"dtype": {"type": "DT_INT32"}, "value": {"tensor": {"dtype": "DT_INT32", "tensorShape": {"dim": [{"size": "2"}]}}}}}, {"name": "MobilenetV2/expanded_conv_16/depthwise/depthwise/BatchToSpaceND/crops", "op": "Const", "attr": {"value": {"tensor": {"dtype": "DT_INT32", "tensorShape": {"dim": [{"size": "2"}, {"size": "2"}]}}}, "dtype": {"type": "DT_INT32"}}}, {"name": "concat/axis", "op": "Const", "attr": {"dtype": {"type": "DT_INT32"}, "value": {"tensor": {"dtype": "DT_INT32", "tensorShape": {}}}}}, {"name": "logits/semantic/weights", "op": "Const", "attr": {"dtype": {"type": "DT_FLOAT"}, "value": {"tensor": {"dtype": "DT_FLOAT", "tensorShape": {"dim": [{"size": "1"}, {"size": "1"}, {"size": "256"}, {"size": "21"}]}}}}}, {"name": "logits/semantic/biases", "op": "Const", "attr": {"value": {"tensor": {"dtype": "DT_FLOAT", "tensorShape": {"dim": [{"size": "21"}]}}}, "dtype": {"type": "DT_FLOAT"}}}, {"name": "ResizeBilinear_1/size", "op": "Const", "attr": {"value": {"tensor": {"dtype": "DT_INT32", "tensorShape": {"dim": [{"size": "2"}]}}}, "dtype": {"type": "DT_INT32"}}}, {"name": "strided_slice_6", "op": "Const", "attr": {"dtype": {"type": "DT_INT32"}, "value": {"tensor": {"dtype": "DT_INT32", "tensorShape": {"dim": [{"size": "2"}]}}}}}, {"name": "MobilenetV2/Conv/Conv2D_weights", "op": "Const", "attr": {"value": {"tensor": {"dtype": "DT_FLOAT", "tensorShape": {"dim": [{"size": "3"}, {"size": "3"}, {"size": "3"}, {"size": "16"}]}}}, "dtype": {"type": "DT_FLOAT"}}}, {"name": "MobilenetV2/Conv/Conv2D_bn_offset", "op": "Const", "attr": {"value": {"tensor": {"dtype": "DT_FLOAT", "tensorShape": {"dim": [{"size": "16"}]}}}, "dtype": {"type": "DT_FLOAT"}}}, {"name": "MobilenetV2/expanded_conv_15/depthwise/BatchNorm/FusedBatchNorm/Offset", "op": "Const", "attr": {"dtype": {"type": "DT_FLOAT"}, "value": {"tensor": {"dtype": "DT_FLOAT", "tensorShape": {"dim": [{"size": "480"}]}}}}}, {"name": "MobilenetV2/expanded_conv/depthwise/depthwise_weights", "op": "Const", "attr": {"dtype": {"type": "DT_FLOAT"}, "value": {"tensor": {"dtype": "DT_FLOAT", "tensorShape": {"dim": [{"size": "3"}, {"size": "3"}, {"size": "16"}, {"size": "1"}]}}}}}, {"name": "MobilenetV2/expanded_conv/depthwise/depthwise_bn_offset", "op": "Const", "attr": {"dtype": {"type": "DT_FLOAT"}, "value": {"tensor": {"dtype": "DT_FLOAT", "tensorShape": {"dim": [{"size": "16"}]}}}}}, {"name": "MobilenetV2/expanded_conv/project/Conv2D_weights", "op": "Const", "attr": {"value": {"tensor": {"dtype": "DT_FLOAT", "tensorShape": {"dim": [{"size": "1"}, {"size": "1"}, {"size": "16"}, {"size": "8"}]}}}, "dtype": {"type": "DT_FLOAT"}}}, {"name": "MobilenetV2/expanded_conv/project/Conv2D_bn_offset", "op": "Const", "attr": {"dtype": {"type": "DT_FLOAT"}, "value": {"tensor": {"dtype": "DT_FLOAT", "tensorShape": {"dim": [{"size": "8"}]}}}}}, {"name": "MobilenetV2/expanded_conv_1/expand/Conv2D_weights", "op": "Const", "attr": {"value": {"tensor": {"dtype": "DT_FLOAT", "tensorShape": {"dim": [{"size": "1"}, {"size": "1"}, {"size": "8"}, {"size": "48"}]}}}, "dtype": {"type": "DT_FLOAT"}}}, {"name": "MobilenetV2/expanded_conv_1/expand/Conv2D_bn_offset", "op": "Const", "attr": {"dtype": {"type": "DT_FLOAT"}, "value": {"tensor": {"dtype": "DT_FLOAT", "tensorShape": {"dim": [{"size": "48"}]}}}}}, {"name": "MobilenetV2/expanded_conv_1/depthwise/depthwise_weights", "op": "Const", "attr": {"dtype": {"type": "DT_FLOAT"}, "value": {"tensor": {"dtype": "DT_FLOAT", "tensorShape": {"dim": [{"size": "3"}, {"size": "3"}, {"size": "48"}, {"size": "1"}]}}}}}, {"name": "MobilenetV2/expanded_conv_1/depthwise/depthwise_bn_offset", "op": "Const", "attr": {"dtype": {"type": "DT_FLOAT"}, "value": {"tensor": {"dtype": "DT_FLOAT", "tensorShape": {"dim": [{"size": "48"}]}}}}}, {"name": "MobilenetV2/expanded_conv_1/project/Conv2D_weights", "op": "Const", "attr": {"dtype": {"type": "DT_FLOAT"}, "value": {"tensor": {"dtype": "DT_FLOAT", "tensorShape": {"dim": [{"size": "1"}, {"size": "1"}, {"size": "48"}, {"size": "12"}]}}}}}, {"name": "MobilenetV2/expanded_conv_14/depthwise/BatchNorm/FusedBatchNorm/Scaled", "op": "Const", "attr": {"dtype": {"type": "DT_FLOAT"}, "value": {"tensor": {"dtype": "DT_FLOAT", "tensorShape": {"dim": [{"size": "480"}]}}}}}, {"name": "MobilenetV2/expanded_conv_1/project/Conv2D_bn_offset", "op": "Const", "attr": {"value": {"tensor": {"dtype": "DT_FLOAT", "tensorShape": {"dim": [{"size": "12"}]}}}, "dtype": {"type": "DT_FLOAT"}}}, {"name": "MobilenetV2/expanded_conv_2/expand/Conv2D_weights", "op": "Const", "attr": {"dtype": {"type": "DT_FLOAT"}, "value": {"tensor": {"dtype": "DT_FLOAT", "tensorShape": {"dim": [{"size": "1"}, {"size": "1"}, {"size": "12"}, {"size": "72"}]}}}}}, {"name": "MobilenetV2/expanded_conv_2/expand/Conv2D_bn_offset", "op": "Const", "attr": {"dtype": {"type": "DT_FLOAT"}, "value": {"tensor": {"dtype": "DT_FLOAT", "tensorShape": {"dim": [{"size": "72"}]}}}}}, {"name": "MobilenetV2/expanded_conv_2/depthwise/depthwise_weights", "op": "Const", "attr": {"dtype": {"type": "DT_FLOAT"}, "value": {"tensor": {"dtype": "DT_FLOAT", "tensorShape": {"dim": [{"size": "3"}, {"size": "3"}, {"size": "72"}, {"size": "1"}]}}}}}, {"name": "MobilenetV2/expanded_conv_2/depthwise/depthwise_bn_offset", "op": "Const", "attr": {"value": {"tensor": {"dtype": "DT_FLOAT", "tensorShape": {"dim": [{"size": "72"}]}}}, "dtype": {"type": "DT_FLOAT"}}}, {"name": "MobilenetV2/expanded_conv_2/project/Conv2D_weights", "op": "Const", "attr": {"dtype": {"type": "DT_FLOAT"}, "value": {"tensor": {"dtype": "DT_FLOAT", "tensorShape": {"dim": [{"size": "1"}, {"size": "1"}, {"size": "72"}, {"size": "12"}]}}}}}, {"name": "MobilenetV2/expanded_conv_14/depthwise/BatchNorm/FusedBatchNorm/Offset", "op": "Const", "attr": {"dtype": {"type": "DT_FLOAT"}, "value": {"tensor": {"dtype": "DT_FLOAT", "tensorShape": {"dim": [{"size": "480"}]}}}}}, {"name": "MobilenetV2/expanded_conv_2/project/Conv2D_bn_offset", "op": "Const", "attr": {"value": {"tensor": {"dtype": "DT_FLOAT", "tensorShape": {"dim": [{"size": "12"}]}}}, "dtype": {"type": "DT_FLOAT"}}}, {"name": "MobilenetV2/expanded_conv_3/expand/Conv2D_weights", "op": "Const", "attr": {"value": {"tensor": {"dtype": "DT_FLOAT", "tensorShape": {"dim": [{"size": "1"}, {"size": "1"}, {"size": "12"}, {"size": "72"}]}}}, "dtype": {"type": "DT_FLOAT"}}}, {"name": "MobilenetV2/expanded_conv_3/expand/Conv2D_bn_offset", "op": "Const", "attr": {"dtype": {"type": "DT_FLOAT"}, "value": {"tensor": {"dtype": "DT_FLOAT", "tensorShape": {"dim": [{"size": "72"}]}}}}}, {"name": "MobilenetV2/expanded_conv_3/depthwise/depthwise_weights", "op": "Const", "attr": {"dtype": {"type": "DT_FLOAT"}, "value": {"tensor": {"dtype": "DT_FLOAT", "tensorShape": {"dim": [{"size": "3"}, {"size": "3"}, {"size": "72"}, {"size": "1"}]}}}}}, {"name": "MobilenetV2/expanded_conv_3/depthwise/depthwise_bn_offset", "op": "Const", "attr": {"dtype": {"type": "DT_FLOAT"}, "value": {"tensor": {"dtype": "DT_FLOAT", "tensorShape": {"dim": [{"size": "72"}]}}}}}, {"name": "MobilenetV2/expanded_conv_3/project/Conv2D_weights", "op": "Const", "attr": {"dtype": {"type": "DT_FLOAT"}, "value": {"tensor": {"dtype": "DT_FLOAT", "tensorShape": {"dim": [{"size": "1"}, {"size": "1"}, {"size": "72"}, {"size": "16"}]}}}}}, {"name": "MobilenetV2/expanded_conv_3/project/Conv2D_bn_offset", "op": "Const", "attr": {"value": {"tensor": {"dtype": "DT_FLOAT", "tensorShape": {"dim": [{"size": "16"}]}}}, "dtype": {"type": "DT_FLOAT"}}}, {"name": "MobilenetV2/expanded_conv_4/expand/Conv2D_weights", "op": "Const", "attr": {"dtype": {"type": "DT_FLOAT"}, "value": {"tensor": {"dtype": "DT_FLOAT", "tensorShape": {"dim": [{"size": "1"}, {"size": "1"}, {"size": "16"}, {"size": "96"}]}}}}}, {"name": "MobilenetV2/expanded_conv_13/depthwise/BatchNorm/FusedBatchNorm/Scaled", "op": "Const", "attr": {"dtype": {"type": "DT_FLOAT"}, "value": {"tensor": {"dtype": "DT_FLOAT", "tensorShape": {"dim": [{"size": "288"}]}}}}}, {"name": "MobilenetV2/expanded_conv_4/expand/Conv2D_bn_offset", "op": "Const", "attr": {"value": {"tensor": {"dtype": "DT_FLOAT", "tensorShape": {"dim": [{"size": "96"}]}}}, "dtype": {"type": "DT_FLOAT"}}}, {"name": "MobilenetV2/expanded_conv_4/depthwise/depthwise_weights", "op": "Const", "attr": {"dtype": {"type": "DT_FLOAT"}, "value": {"tensor": {"dtype": "DT_FLOAT", "tensorShape": {"dim": [{"size": "3"}, {"size": "3"}, {"size": "96"}, {"size": "1"}]}}}}}, {"name": "MobilenetV2/expanded_conv_4/depthwise/depthwise_bn_offset", "op": "Const", "attr": {"dtype": {"type": "DT_FLOAT"}, "value": {"tensor": {"dtype": "DT_FLOAT", "tensorShape": {"dim": [{"size": "96"}]}}}}}, {"name": "MobilenetV2/expanded_conv_4/project/Conv2D_weights", "op": "Const", "attr": {"value": {"tensor": {"dtype": "DT_FLOAT", "tensorShape": {"dim": [{"size": "1"}, {"size": "1"}, {"size": "96"}, {"size": "16"}]}}}, "dtype": {"type": "DT_FLOAT"}}}, {"name": "MobilenetV2/expanded_conv_4/project/Conv2D_bn_offset", "op": "Const", "attr": {"dtype": {"type": "DT_FLOAT"}, "value": {"tensor": {"dtype": "DT_FLOAT", "tensorShape": {"dim": [{"size": "16"}]}}}}}, {"name": "MobilenetV2/expanded_conv_5/expand/Conv2D_weights", "op": "Const", "attr": {"value": {"tensor": {"dtype": "DT_FLOAT", "tensorShape": {"dim": [{"size": "1"}, {"size": "1"}, {"size": "16"}, {"size": "96"}]}}}, "dtype": {"type": "DT_FLOAT"}}}, {"name": "MobilenetV2/expanded_conv_13/depthwise/BatchNorm/FusedBatchNorm/Offset", "op": "Const", "attr": {"value": {"tensor": {"dtype": "DT_FLOAT", "tensorShape": {"dim": [{"size": "288"}]}}}, "dtype": {"type": "DT_FLOAT"}}}, {"name": "MobilenetV2/expanded_conv_5/expand/Conv2D_bn_offset", "op": "Const", "attr": {"value": {"tensor": {"dtype": "DT_FLOAT", "tensorShape": {"dim": [{"size": "96"}]}}}, "dtype": {"type": "DT_FLOAT"}}}, {"name": "MobilenetV2/expanded_conv_5/depthwise/depthwise_weights", "op": "Const", "attr": {"dtype": {"type": "DT_FLOAT"}, "value": {"tensor": {"dtype": "DT_FLOAT", "tensorShape": {"dim": [{"size": "3"}, {"size": "3"}, {"size": "96"}, {"size": "1"}]}}}}}, {"name": "MobilenetV2/expanded_conv_5/depthwise/depthwise_bn_offset", "op": "Const", "attr": {"value": {"tensor": {"dtype": "DT_FLOAT", "tensorShape": {"dim": [{"size": "96"}]}}}, "dtype": {"type": "DT_FLOAT"}}}, {"name": "MobilenetV2/expanded_conv_5/project/Conv2D_weights", "op": "Const", "attr": {"value": {"tensor": {"dtype": "DT_FLOAT", "tensorShape": {"dim": [{"size": "1"}, {"size": "1"}, {"size": "96"}, {"size": "16"}]}}}, "dtype": {"type": "DT_FLOAT"}}}, {"name": "MobilenetV2/expanded_conv_5/project/Conv2D_bn_offset", "op": "Const", "attr": {"value": {"tensor": {"dtype": "DT_FLOAT", "tensorShape": {"dim": [{"size": "16"}]}}}, "dtype": {"type": "DT_FLOAT"}}}, {"name": "MobilenetV2/expanded_conv_6/expand/Conv2D_weights", "op": "Const", "attr": {"value": {"tensor": {"dtype": "DT_FLOAT", "tensorShape": {"dim": [{"size": "1"}, {"size": "1"}, {"size": "16"}, {"size": "96"}]}}}, "dtype": {"type": "DT_FLOAT"}}}, {"name": "MobilenetV2/expanded_conv_6/expand/Conv2D_bn_offset", "op": "Const", "attr": {"value": {"tensor": {"dtype": "DT_FLOAT", "tensorShape": {"dim": [{"size": "96"}]}}}, "dtype": {"type": "DT_FLOAT"}}}, {"name": "MobilenetV2/expanded_conv_12/depthwise/BatchNorm/FusedBatchNorm/Scaled", "op": "Const", "attr": {"value": {"tensor": {"dtype": "DT_FLOAT", "tensorShape": {"dim": [{"size": "288"}]}}}, "dtype": {"type": "DT_FLOAT"}}}, {"name": "MobilenetV2/expanded_conv_6/depthwise/depthwise_weights", "op": "Const", "attr": {"dtype": {"type": "DT_FLOAT"}, "value": {"tensor": {"dtype": "DT_FLOAT", "tensorShape": {"dim": [{"size": "3"}, {"size": "3"}, {"size": "96"}, {"size": "1"}]}}}}}, {"name": "MobilenetV2/expanded_conv_6/depthwise/depthwise_bn_offset", "op": "Const", "attr": {"dtype": {"type": "DT_FLOAT"}, "value": {"tensor": {"dtype": "DT_FLOAT", "tensorShape": {"dim": [{"size": "96"}]}}}}}, {"name": "MobilenetV2/expanded_conv_6/project/Conv2D_weights", "op": "Const", "attr": {"dtype": {"type": "DT_FLOAT"}, "value": {"tensor": {"dtype": "DT_FLOAT", "tensorShape": {"dim": [{"size": "1"}, {"size": "1"}, {"size": "96"}, {"size": "32"}]}}}}}, {"name": "MobilenetV2/expanded_conv_6/project/Conv2D_bn_offset", "op": "Const", "attr": {"value": {"tensor": {"dtype": "DT_FLOAT", "tensorShape": {"dim": [{"size": "32"}]}}}, "dtype": {"type": "DT_FLOAT"}}}, {"name": "MobilenetV2/expanded_conv_7/expand/Conv2D_weights", "op": "Const", "attr": {"value": {"tensor": {"dtype": "DT_FLOAT", "tensorShape": {"dim": [{"size": "1"}, {"size": "1"}, {"size": "32"}, {"size": "192"}]}}}, "dtype": {"type": "DT_FLOAT"}}}, {"name": "MobilenetV2/expanded_conv_7/expand/Conv2D_bn_offset", "op": "Const", "attr": {"value": {"tensor": {"dtype": "DT_FLOAT", "tensorShape": {"dim": [{"size": "192"}]}}}, "dtype": {"type": "DT_FLOAT"}}}, {"name": "MobilenetV2/expanded_conv_12/depthwise/BatchNorm/FusedBatchNorm/Offset", "op": "Const", "attr": {"value": {"tensor": {"dtype": "DT_FLOAT", "tensorShape": {"dim": [{"size": "288"}]}}}, "dtype": {"type": "DT_FLOAT"}}}, {"name": "MobilenetV2/expanded_conv_7/project/Conv2D_weights", "op": "Const", "attr": {"dtype": {"type": "DT_FLOAT"}, "value": {"tensor": {"dtype": "DT_FLOAT", "tensorShape": {"dim": [{"size": "1"}, {"size": "1"}, {"size": "192"}, {"size": "32"}]}}}}}, {"name": "MobilenetV2/expanded_conv_7/project/Conv2D_bn_offset", "op": "Const", "attr": {"value": {"tensor": {"dtype": "DT_FLOAT", "tensorShape": {"dim": [{"size": "32"}]}}}, "dtype": {"type": "DT_FLOAT"}}}, {"name": "MobilenetV2/expanded_conv_8/expand/Conv2D_weights", "op": "Const", "attr": {"value": {"tensor": {"dtype": "DT_FLOAT", "tensorShape": {"dim": [{"size": "1"}, {"size": "1"}, {"size": "32"}, {"size": "192"}]}}}, "dtype": {"type": "DT_FLOAT"}}}, {"name": "MobilenetV2/expanded_conv_8/expand/Conv2D_bn_offset", "op": "Const", "attr": {"dtype": {"type": "DT_FLOAT"}, "value": {"tensor": {"dtype": "DT_FLOAT", "tensorShape": {"dim": [{"size": "192"}]}}}}}, {"name": "MobilenetV2/expanded_conv_8/project/Conv2D_weights", "op": "Const", "attr": {"value": {"tensor": {"dtype": "DT_FLOAT", "tensorShape": {"dim": [{"size": "1"}, {"size": "1"}, {"size": "192"}, {"size": "32"}]}}}, "dtype": {"type": "DT_FLOAT"}}}, {"name": "MobilenetV2/expanded_conv_11/depthwise/BatchNorm/FusedBatchNorm/Scaled", "op": "Const", "attr": {"dtype": {"type": "DT_FLOAT"}, "value": {"tensor": {"dtype": "DT_FLOAT", "tensorShape": {"dim": [{"size": "288"}]}}}}}, {"name": "MobilenetV2/expanded_conv_8/project/Conv2D_bn_offset", "op": "Const", "attr": {"value": {"tensor": {"dtype": "DT_FLOAT", "tensorShape": {"dim": [{"size": "32"}]}}}, "dtype": {"type": "DT_FLOAT"}}}, {"name": "MobilenetV2/expanded_conv_9/expand/Conv2D_weights", "op": "Const", "attr": {"value": {"tensor": {"dtype": "DT_FLOAT", "tensorShape": {"dim": [{"size": "1"}, {"size": "1"}, {"size": "32"}, {"size": "192"}]}}}, "dtype": {"type": "DT_FLOAT"}}}, {"name": "MobilenetV2/expanded_conv_9/expand/Conv2D_bn_offset", "op": "Const", "attr": {"value": {"tensor": {"dtype": "DT_FLOAT", "tensorShape": {"dim": [{"size": "192"}]}}}, "dtype": {"type": "DT_FLOAT"}}}, {"name": "MobilenetV2/expanded_conv_9/project/Conv2D_weights", "op": "Const", "attr": {"dtype": {"type": "DT_FLOAT"}, "value": {"tensor": {"dtype": "DT_FLOAT", "tensorShape": {"dim": [{"size": "1"}, {"size": "1"}, {"size": "192"}, {"size": "32"}]}}}}}, {"name": "MobilenetV2/expanded_conv_11/depthwise/BatchNorm/FusedBatchNorm/Offset", "op": "Const", "attr": {"value": {"tensor": {"dtype": "DT_FLOAT", "tensorShape": {"dim": [{"size": "288"}]}}}, "dtype": {"type": "DT_FLOAT"}}}, {"name": "MobilenetV2/expanded_conv_9/project/Conv2D_bn_offset", "op": "Const", "attr": {"value": {"tensor": {"dtype": "DT_FLOAT", "tensorShape": {"dim": [{"size": "32"}]}}}, "dtype": {"type": "DT_FLOAT"}}}, {"name": "MobilenetV2/expanded_conv_10/expand/Conv2D_weights", "op": "Const", "attr": {"dtype": {"type": "DT_FLOAT"}, "value": {"tensor": {"dtype": "DT_FLOAT", "tensorShape": {"dim": [{"size": "1"}, {"size": "1"}, {"size": "32"}, {"size": "192"}]}}}}}, {"name": "MobilenetV2/expanded_conv_10/expand/Conv2D_bn_offset", "op": "Const", "attr": {"value": {"tensor": {"dtype": "DT_FLOAT", "tensorShape": {"dim": [{"size": "192"}]}}}, "dtype": {"type": "DT_FLOAT"}}}, {"name": "MobilenetV2/expanded_conv_10/project/Conv2D_weights", "op": "Const", "attr": {"value": {"tensor": {"dtype": "DT_FLOAT", "tensorShape": {"dim": [{"size": "1"}, {"size": "1"}, {"size": "192"}, {"size": "48"}]}}}, "dtype": {"type": "DT_FLOAT"}}}, {"name": "MobilenetV2/expanded_conv_10/project/Conv2D_bn_offset", "op": "Const", "attr": {"value": {"tensor": {"dtype": "DT_FLOAT", "tensorShape": {"dim": [{"size": "48"}]}}}, "dtype": {"type": "DT_FLOAT"}}}, {"name": "MobilenetV2/expanded_conv_11/expand/Conv2D_weights", "op": "Const", "attr": {"value": {"tensor": {"dtype": "DT_FLOAT", "tensorShape": {"dim": [{"size": "1"}, {"size": "1"}, {"size": "48"}, {"size": "288"}]}}}, "dtype": {"type": "DT_FLOAT"}}}, {"name": "MobilenetV2/expanded_conv_10/depthwise/BatchNorm/FusedBatchNorm/Scaled", "op": "Const", "attr": {"value": {"tensor": {"dtype": "DT_FLOAT", "tensorShape": {"dim": [{"size": "192"}]}}}, "dtype": {"type": "DT_FLOAT"}}}, {"name": "MobilenetV2/expanded_conv_11/expand/Conv2D_bn_offset", "op": "Const", "attr": {"value": {"tensor": {"dtype": "DT_FLOAT", "tensorShape": {"dim": [{"size": "288"}]}}}, "dtype": {"type": "DT_FLOAT"}}}, {"name": "MobilenetV2/expanded_conv_11/project/Conv2D_weights", "op": "Const", "attr": {"value": {"tensor": {"dtype": "DT_FLOAT", "tensorShape": {"dim": [{"size": "1"}, {"size": "1"}, {"size": "288"}, {"size": "48"}]}}}, "dtype": {"type": "DT_FLOAT"}}}, {"name": "MobilenetV2/expanded_conv_11/project/Conv2D_bn_offset", "op": "Const", "attr": {"value": {"tensor": {"dtype": "DT_FLOAT", "tensorShape": {"dim": [{"size": "48"}]}}}, "dtype": {"type": "DT_FLOAT"}}}, {"name": "MobilenetV2/expanded_conv_12/expand/Conv2D_weights", "op": "Const", "attr": {"value": {"tensor": {"dtype": "DT_FLOAT", "tensorShape": {"dim": [{"size": "1"}, {"size": "1"}, {"size": "48"}, {"size": "288"}]}}}, "dtype": {"type": "DT_FLOAT"}}}, {"name": "MobilenetV2/expanded_conv_10/depthwise/BatchNorm/FusedBatchNorm/Offset", "op": "Const", "attr": {"value": {"tensor": {"dtype": "DT_FLOAT", "tensorShape": {"dim": [{"size": "192"}]}}}, "dtype": {"type": "DT_FLOAT"}}}, {"name": "MobilenetV2/expanded_conv_12/expand/Conv2D_bn_offset", "op": "Const", "attr": {"dtype": {"type": "DT_FLOAT"}, "value": {"tensor": {"dtype": "DT_FLOAT", "tensorShape": {"dim": [{"size": "288"}]}}}}}, {"name": "MobilenetV2/expanded_conv_12/project/Conv2D_weights", "op": "Const", "attr": {"value": {"tensor": {"dtype": "DT_FLOAT", "tensorShape": {"dim": [{"size": "1"}, {"size": "1"}, {"size": "288"}, {"size": "48"}]}}}, "dtype": {"type": "DT_FLOAT"}}}, {"name": "MobilenetV2/expanded_conv_12/project/Conv2D_bn_offset", "op": "Const", "attr": {"value": {"tensor": {"dtype": "DT_FLOAT", "tensorShape": {"dim": [{"size": "48"}]}}}, "dtype": {"type": "DT_FLOAT"}}}, {"name": "MobilenetV2/expanded_conv_13/expand/Conv2D_weights", "op": "Const", "attr": {"value": {"tensor": {"dtype": "DT_FLOAT", "tensorShape": {"dim": [{"size": "1"}, {"size": "1"}, {"size": "48"}, {"size": "288"}]}}}, "dtype": {"type": "DT_FLOAT"}}}, {"name": "MobilenetV2/expanded_conv_13/expand/Conv2D_bn_offset", "op": "Const", "attr": {"dtype": {"type": "DT_FLOAT"}, "value": {"tensor": {"dtype": "DT_FLOAT", "tensorShape": {"dim": [{"size": "288"}]}}}}}, {"name": "MobilenetV2/expanded_conv_9/depthwise/BatchNorm/FusedBatchNorm/Scaled", "op": "Const", "attr": {"value": {"tensor": {"dtype": "DT_FLOAT", "tensorShape": {"dim": [{"size": "192"}]}}}, "dtype": {"type": "DT_FLOAT"}}}, {"name": "MobilenetV2/expanded_conv_13/project/Conv2D_weights", "op": "Const", "attr": {"value": {"tensor": {"dtype": "DT_FLOAT", "tensorShape": {"dim": [{"size": "1"}, {"size": "1"}, {"size": "288"}, {"size": "80"}]}}}, "dtype": {"type": "DT_FLOAT"}}}, {"name": "MobilenetV2/expanded_conv_13/project/Conv2D_bn_offset", "op": "Const", "attr": {"value": {"tensor": {"dtype": "DT_FLOAT", "tensorShape": {"dim": [{"size": "80"}]}}}, "dtype": {"type": "DT_FLOAT"}}}, {"name": "MobilenetV2/expanded_conv_14/expand/Conv2D_weights", "op": "Const", "attr": {"value": {"tensor": {"dtype": "DT_FLOAT", "tensorShape": {"dim": [{"size": "1"}, {"size": "1"}, {"size": "80"}, {"size": "480"}]}}}, "dtype": {"type": "DT_FLOAT"}}}, {"name": "MobilenetV2/expanded_conv_14/expand/Conv2D_bn_offset", "op": "Const", "attr": {"value": {"tensor": {"dtype": "DT_FLOAT", "tensorShape": {"dim": [{"size": "480"}]}}}, "dtype": {"type": "DT_FLOAT"}}}, {"name": "MobilenetV2/expanded_conv_9/depthwise/BatchNorm/FusedBatchNorm/Offset", "op": "Const", "attr": {"dtype": {"type": "DT_FLOAT"}, "value": {"tensor": {"dtype": "DT_FLOAT", "tensorShape": {"dim": [{"size": "192"}]}}}}}, {"name": "MobilenetV2/expanded_conv_14/project/Conv2D_weights", "op": "Const", "attr": {"dtype": {"type": "DT_FLOAT"}, "value": {"tensor": {"dtype": "DT_FLOAT", "tensorShape": {"dim": [{"size": "1"}, {"size": "1"}, {"size": "480"}, {"size": "80"}]}}}}}, {"name": "MobilenetV2/expanded_conv_14/project/Conv2D_bn_offset", "op": "Const", "attr": {"value": {"tensor": {"dtype": "DT_FLOAT", "tensorShape": {"dim": [{"size": "80"}]}}}, "dtype": {"type": "DT_FLOAT"}}}, {"name": "MobilenetV2/expanded_conv_15/expand/Conv2D_weights", "op": "Const", "attr": {"value": {"tensor": {"dtype": "DT_FLOAT", "tensorShape": {"dim": [{"size": "1"}, {"size": "1"}, {"size": "80"}, {"size": "480"}]}}}, "dtype": {"type": "DT_FLOAT"}}}, {"name": "MobilenetV2/expanded_conv_15/expand/Conv2D_bn_offset", "op": "Const", "attr": {"value": {"tensor": {"dtype": "DT_FLOAT", "tensorShape": {"dim": [{"size": "480"}]}}}, "dtype": {"type": "DT_FLOAT"}}}, {"name": "MobilenetV2/expanded_conv_15/project/Conv2D_weights", "op": "Const", "attr": {"dtype": {"type": "DT_FLOAT"}, "value": {"tensor": {"dtype": "DT_FLOAT", "tensorShape": {"dim": [{"size": "1"}, {"size": "1"}, {"size": "480"}, {"size": "80"}]}}}}}, {"name": "MobilenetV2/expanded_conv_8/depthwise/BatchNorm/FusedBatchNorm/Scaled", "op": "Const", "attr": {"value": {"tensor": {"dtype": "DT_FLOAT", "tensorShape": {"dim": [{"size": "192"}]}}}, "dtype": {"type": "DT_FLOAT"}}}, {"name": "MobilenetV2/expanded_conv_15/project/Conv2D_bn_offset", "op": "Const", "attr": {"dtype": {"type": "DT_FLOAT"}, "value": {"tensor": {"dtype": "DT_FLOAT", "tensorShape": {"dim": [{"size": "80"}]}}}}}, {"name": "MobilenetV2/expanded_conv_16/expand/Conv2D_weights", "op": "Const", "attr": {"value": {"tensor": {"dtype": "DT_FLOAT", "tensorShape": {"dim": [{"size": "1"}, {"size": "1"}, {"size": "80"}, {"size": "480"}]}}}, "dtype": {"type": "DT_FLOAT"}}}, {"name": "MobilenetV2/expanded_conv_16/expand/Conv2D_bn_offset", "op": "Const", "attr": {"value": {"tensor": {"dtype": "DT_FLOAT", "tensorShape": {"dim": [{"size": "480"}]}}}, "dtype": {"type": "DT_FLOAT"}}}, {"name": "MobilenetV2/expanded_conv_16/project/Conv2D_weights", "op": "Const", "attr": {"value": {"tensor": {"dtype": "DT_FLOAT", "tensorShape": {"dim": [{"size": "1"}, {"size": "1"}, {"size": "480"}, {"size": "160"}]}}}, "dtype": {"type": "DT_FLOAT"}}}, {"name": "MobilenetV2/expanded_conv_8/depthwise/BatchNorm/FusedBatchNorm/Offset", "op": "Const", "attr": {"dtype": {"type": "DT_FLOAT"}, "value": {"tensor": {"dtype": "DT_FLOAT", "tensorShape": {"dim": [{"size": "192"}]}}}}}, {"name": "MobilenetV2/expanded_conv_16/project/Conv2D_bn_offset", "op": "Const", "attr": {"value": {"tensor": {"dtype": "DT_FLOAT", "tensorShape": {"dim": [{"size": "160"}]}}}, "dtype": {"type": "DT_FLOAT"}}}, {"name": "aspp0/Conv2D_weights", "op": "Const", "attr": {"dtype": {"type": "DT_FLOAT"}, "value": {"tensor": {"dtype": "DT_FLOAT", "tensorShape": {"dim": [{"size": "1"}, {"size": "1"}, {"size": "160"}, {"size": "256"}]}}}}}, {"name": "aspp0/Conv2D_bn_offset", "op": "Const", "attr": {"value": {"tensor": {"dtype": "DT_FLOAT", "tensorShape": {"dim": [{"size": "256"}]}}}, "dtype": {"type": "DT_FLOAT"}}}, {"name": "image_pooling/Conv2D_weights", "op": "Const", "attr": {"value": {"tensor": {"dtype": "DT_FLOAT", "tensorShape": {"dim": [{"size": "1"}, {"size": "1"}, {"size": "160"}, {"size": "256"}]}}}, "dtype": {"type": "DT_FLOAT"}}}, {"name": "image_pooling/Conv2D_bn_offset", "op": "Const", "attr": {"dtype": {"type": "DT_FLOAT"}, "value": {"tensor": {"dtype": "DT_FLOAT", "tensorShape": {"dim": [{"size": "256"}]}}}}}, {"name": "MobilenetV2/expanded_conv_7/depthwise/BatchNorm/FusedBatchNorm/Scaled", "op": "Const", "attr": {"value": {"tensor": {"dtype": "DT_FLOAT", "tensorShape": {"dim": [{"size": "192"}]}}}, "dtype": {"type": "DT_FLOAT"}}}, {"name": "concat_projection/Conv2D_weights", "op": "Const", "attr": {"dtype": {"type": "DT_FLOAT"}, "value": {"tensor": {"dtype": "DT_FLOAT", "tensorShape": {"dim": [{"size": "1"}, {"size": "1"}, {"size": "512"}, {"size": "256"}]}}}}}, {"name": "concat_projection/Conv2D_bn_offset", "op": "Const", "attr": {"dtype": {"type": "DT_FLOAT"}, "value": {"tensor": {"dtype": "DT_FLOAT", "tensorShape": {"dim": [{"size": "256"}]}}}}}, {"name": "MobilenetV2/expanded_conv_7/depthwise/BatchNorm/FusedBatchNorm/Offset", "op": "Const", "attr": {"dtype": {"type": "DT_FLOAT"}, "value": {"tensor": {"dtype": "DT_FLOAT", "tensorShape": {"dim": [{"size": "192"}]}}}}}, {"name": "MobilenetV2/expanded_conv_16/depthwise/BatchNorm/FusedBatchNorm/Scaled", "op": "Const", "attr": {"value": {"tensor": {"dtype": "DT_FLOAT", "tensorShape": {"dim": [{"size": "480"}]}}}, "dtype": {"type": "DT_FLOAT"}}}, {"name": "MobilenetV2/expanded_conv_16/depthwise/BatchNorm/FusedBatchNorm/Offset", "op": "Const", "attr": {"value": {"tensor": {"dtype": "DT_FLOAT", "tensorShape": {"dim": [{"size": "480"}]}}}, "dtype": {"type": "DT_FLOAT"}}}, {"name": "MobilenetV2/expanded_conv_15/depthwise/BatchNorm/FusedBatchNorm/Scaled", "op": "Const", "attr": {"value": {"tensor": {"dtype": "DT_FLOAT", "tensorShape": {"dim": [{"size": "480"}]}}}, "dtype": {"type": "DT_FLOAT"}}}, {"name": "Squeeze", "op": "Squeeze", "input": ["ImageTensor"], "attr": {"squeeze_dims": {"list": {"i": ["0"]}}, "T": {"type": "DT_UINT8"}}}, {"name": "Cast", "op": "Cast", "input": ["Squeeze"], "attr": {"Truncate": {"b": false}, "DstT": {"type": "DT_FLOAT"}, "SrcT": {"type": "DT_UINT8"}}}, {"name": "Shape_1", "op": "Shape", "input": ["Cast"], "attr": {"out_type": {"type": "DT_INT32"}, "T": {"type": "DT_FLOAT"}}}, {"name": "sub_2", "op": "Sub", "input": ["Cast", "Reshape"], "attr": {"T": {"type": "DT_FLOAT"}}}, {"name": "strided_slice_1", "op": "StridedSlice", "input": ["Shape_1", "strided_slice_1/stack", "strided_slice_1/stack_1", "strided_slice_1/stack_2"], "attr": {"Index": {"type": "DT_INT32"}, "ellipsis_mask": {"i": "0"}, "begin_mask": {"i": "0"}, "end_mask": {"i": "0"}, "T": {"type": "DT_INT32"}, "shrink_axis_mask": {"i": "1"}, "new_axis_mask": {"i": "0"}}}, {"name": "strided_slice_2", "op": "StridedSlice", "input": ["Shape_1", "strided_slice_2/stack", "strided_slice_2/stack_1", "strided_slice_2/stack_2"], "attr": {"ellipsis_mask": {"i": "0"}, "begin_mask": {"i": "0"}, "shrink_axis_mask": {"i": "1"}, "end_mask": {"i": "0"}, "T": {"type": "DT_INT32"}, "new_axis_mask": {"i": "0"}, "Index": {"type": "DT_INT32"}}}, {"name": "Shape_2", "op": "Shape", "input": ["sub_2"], "attr": {"out_type": {"type": "DT_INT32"}, "T": {"type": "DT_FLOAT"}}}, {"name": "sub", "op": "Sub", "input": ["sub/x", "strided_slice_1"], "attr": {"T": {"type": "DT_INT32"}}}, {"name": "sub_1", "op": "Sub", "input": ["sub_1/x", "strided_slice_2"], "attr": {"T": {"type": "DT_INT32"}}}, {"name": "strided_slice_3", "op": "StridedSlice", "input": ["Shape_2", "strided_slice_3/stack", "strided_slice_3/stack_1", "strided_slice_3/stack_2"], "attr": {"new_axis_mask": {"i": "0"}, "Index": {"type": "DT_INT32"}, "ellipsis_mask": {"i": "0"}, "begin_mask": {"i": "0"}, "end_mask": {"i": "0"}, "T": {"type": "DT_INT32"}, "shrink_axis_mask": {"i": "1"}}}, {"name": "strided_slice_4", "op": "StridedSlice", "input": ["Shape_2", "strided_slice_4/stack", "strided_slice_4/stack_1", "strided_slice_4/stack_2"], "attr": {"end_mask": {"i": "0"}, "new_axis_mask": {"i": "0"}, "ellipsis_mask": {"i": "0"}, "begin_mask": {"i": "0"}, "shrink_axis_mask": {"i": "1"}, "Index": {"type": "DT_INT32"}, "T": {"type": "DT_INT32"}}}, {"name": "Maximum", "op": "Maximum", "input": ["sub", "Maximum/y"], "attr": {"T": {"type": "DT_INT32"}}}, {"name": "Maximum_1", "op": "Maximum", "input": ["sub_1", "Maximum_1/y"], "attr": {"T": {"type": "DT_INT32"}}}, {"name": "add", "op": "Add", "input": ["strided_slice_1", "Maximum"], "attr": {"T": {"type": "DT_INT32"}}}, {"name": "add_1", "op": "Add", "input": ["strided_slice_2", "Maximum_1"], "attr": {"T": {"type": "DT_INT32"}}}, {"name": "sub_6", "op": "Sub", "input": ["add", "strided_slice_3"], "attr": {"T": {"type": "DT_INT32"}}}, {"name": "sub_4", "op": "Sub", "input": ["add_1", "strided_slice_4"], "attr": {"T": {"type": "DT_INT32"}}}, {"name": "stack", "op": "Pack", "input": ["stack/0", "sub_6"], "attr": {"axis": {"i": "0"}, "N": {"i": "2"}, "T": {"type": "DT_INT32"}}}, {"name": "stack_1", "op": "Pack", "input": ["stack_1/0", "sub_4"], "attr": {"axis": {"i": "0"}, "T": {"type": "DT_INT32"}, "N": {"i": "2"}}}, {"name": "stack_3", "op": "Pack", "input": ["stack", "stack_1", "stack_2"], "attr": {"N": {"i": "3"}, "T": {"type": "DT_INT32"}, "axis": {"i": "0"}}}, {"name": "Pad", "op": "Pad", "input": ["sub_2", "stack_3"], "attr": {"Tpaddings": {"type": "DT_INT32"}, "T": {"type": "DT_FLOAT"}}}, {"name": "add_2", "op": "Add", "input": ["Pad", "Reshape"], "attr": {"T": {"type": "DT_FLOAT"}}}, {"name": "ExpandDims", "op": "ExpandDims", "input": ["add_2", "ExpandDims/dim"], "attr": {"T": {"type": "DT_FLOAT"}, "Tdim": {"type": "DT_INT32"}}}, {"name": "mul", "op": "Mul", "input": ["mul/x", "ExpandDims"], "attr": {"T": {"type": "DT_FLOAT"}}}, {"name": "sub_7", "op": "Sub", "input": ["mul", "sub_7/y"], "attr": {"T": {"type": "DT_FLOAT"}}}, {"name": "MobilenetV2/Conv/Relu6", "op": "_FusedConv2D", "input": ["sub_7", "MobilenetV2/Conv/Conv2D_weights", "MobilenetV2/Conv/Conv2D_bn_offset"], "device": "/device:CPU:0", "attr": {"explicit_paddings": {"list": {}}, "fused_ops": {"list": {"s": ["Qmlhc0FkZA==", "UmVsdTY="]}}, "padding": {"s": "U0FNRQ=="}, "epsilon": {"f": 0.0}, "use_cudnn_on_gpu": {"b": true}, "data_format": {"s": "TkhXQw=="}, "num_args": {"i": "1"}, "strides": {"list": {"i": ["1", "2", "2", "1"]}}, "dilations": {"list": {"i": ["1", "1", "1", "1"]}}, "T": {"type": "DT_FLOAT"}}}, {"name": "MobilenetV2/expanded_conv/depthwise/depthwise", "op": "FusedDepthwiseConv2dNative", "input": ["MobilenetV2/Conv/Relu6", "MobilenetV2/expanded_conv/depthwise/depthwise_weights", "MobilenetV2/expanded_conv/depthwise/depthwise_bn_offset"], "attr": {"explicit_paddings": {"list": {}}, "T": {"type": "DT_FLOAT"}, "padding": {"s": "U0FNRQ=="}, "fused_ops": {"list": {"s": ["Qmlhc0FkZA==", "UmVsdTY="]}}, "data_format": {"s": "TkhXQw=="}, "num_args": {"i": "1"}, "strides": {"list": {"i": ["1", "1", "1", "1"]}}, "dilations": {"list": {"i": ["1", "1", "1", "1"]}}}}, {"name": "MobilenetV2/expanded_conv/project/BatchNorm/FusedBatchNorm", "op": "_FusedConv2D", "input": ["MobilenetV2/expanded_conv/depthwise/depthwise", "MobilenetV2/expanded_conv/project/Conv2D_weights", "MobilenetV2/expanded_conv/project/Conv2D_bn_offset"], "device": "/device:CPU:0", "attr": {"padding": {"s": "U0FNRQ=="}, "data_format": {"s": "TkhXQw=="}, "fused_ops": {"list": {"s": ["Qmlhc0FkZA=="]}}, "epsilon": {"f": 0.0}, "use_cudnn_on_gpu": {"b": true}, "num_args": {"i": "1"}, "dilations": {"list": {"i": ["1", "1", "1", "1"]}}, "strides": {"list": {"i": ["1", "1", "1", "1"]}}, "T": {"type": "DT_FLOAT"}, "explicit_paddings": {"list": {}}}}, {"name": "MobilenetV2/expanded_conv_1/expand/Relu6", "op": "_FusedConv2D", "input": ["MobilenetV2/expanded_conv/project/BatchNorm/FusedBatchNorm", "MobilenetV2/expanded_conv_1/expand/Conv2D_weights", "MobilenetV2/expanded_conv_1/expand/Conv2D_bn_offset"], "device": "/device:CPU:0", "attr": {"padding": {"s": "U0FNRQ=="}, "fused_ops": {"list": {"s": ["Qmlhc0FkZA==", "UmVsdTY="]}}, "use_cudnn_on_gpu": {"b": true}, "T": {"type": "DT_FLOAT"}, "data_format": {"s": "TkhXQw=="}, "dilations": {"list": {"i": ["1", "1", "1", "1"]}}, "strides": {"list": {"i": ["1", "1", "1", "1"]}}, "num_args": {"i": "1"}, "epsilon": {"f": 0.0}, "explicit_paddings": {"list": {}}}}, {"name": "MobilenetV2/expanded_conv_1/depthwise/depthwise", "op": "FusedDepthwiseConv2dNative", "input": ["MobilenetV2/expanded_conv_1/expand/Relu6", "MobilenetV2/expanded_conv_1/depthwise/depthwise_weights", "MobilenetV2/expanded_conv_1/depthwise/depthwise_bn_offset"], "attr": {"data_format": {"s": "TkhXQw=="}, "dilations": {"list": {"i": ["1", "1", "1", "1"]}}, "strides": {"list": {"i": ["1", "2", "2", "1"]}}, "num_args": {"i": "1"}, "explicit_paddings": {"list": {}}, "padding": {"s": "U0FNRQ=="}, "fused_ops": {"list": {"s": ["Qmlhc0FkZA==", "UmVsdTY="]}}, "T": {"type": "DT_FLOAT"}}}, {"name": "MobilenetV2/expanded_conv_1/project/BatchNorm/FusedBatchNorm", "op": "_FusedConv2D", "input": ["MobilenetV2/expanded_conv_1/depthwise/depthwise", "MobilenetV2/expanded_conv_1/project/Conv2D_weights", "MobilenetV2/expanded_conv_1/project/Conv2D_bn_offset"], "device": "/device:CPU:0", "attr": {"data_format": {"s": "TkhXQw=="}, "use_cudnn_on_gpu": {"b": true}, "num_args": {"i": "1"}, "dilations": {"list": {"i": ["1", "1", "1", "1"]}}, "strides": {"list": {"i": ["1", "1", "1", "1"]}}, "epsilon": {"f": 0.0}, "padding": {"s": "U0FNRQ=="}, "T": {"type": "DT_FLOAT"}, "explicit_paddings": {"list": {}}, "fused_ops": {"list": {"s": ["Qmlhc0FkZA=="]}}}}, {"name": "MobilenetV2/expanded_conv_2/expand/Relu6", "op": "_FusedConv2D", "input": ["MobilenetV2/expanded_conv_1/project/BatchNorm/FusedBatchNorm", "MobilenetV2/expanded_conv_2/expand/Conv2D_weights", "MobilenetV2/expanded_conv_2/expand/Conv2D_bn_offset"], "device": "/device:CPU:0", "attr": {"data_format": {"s": "TkhXQw=="}, "num_args": {"i": "1"}, "dilations": {"list": {"i": ["1", "1", "1", "1"]}}, "strides": {"list": {"i": ["1", "1", "1", "1"]}}, "T": {"type": "DT_FLOAT"}, "explicit_paddings": {"list": {}}, "fused_ops": {"list": {"s": ["Qmlhc0FkZA==", "UmVsdTY="]}}, "epsilon": {"f": 0.0}, "padding": {"s": "U0FNRQ=="}, "use_cudnn_on_gpu": {"b": true}}}, {"name": "MobilenetV2/expanded_conv_2/depthwise/depthwise", "op": "FusedDepthwiseConv2dNative", "input": ["MobilenetV2/expanded_conv_2/expand/Relu6", "MobilenetV2/expanded_conv_2/depthwise/depthwise_weights", "MobilenetV2/expanded_conv_2/depthwise/depthwise_bn_offset"], "attr": {"explicit_paddings": {"list": {}}, "fused_ops": {"list": {"s": ["Qmlhc0FkZA==", "UmVsdTY="]}}, "T": {"type": "DT_FLOAT"}, "strides": {"list": {"i": ["1", "1", "1", "1"]}}, "data_format": {"s": "TkhXQw=="}, "padding": {"s": "U0FNRQ=="}, "dilations": {"list": {"i": ["1", "1", "1", "1"]}}, "num_args": {"i": "1"}}}, {"name": "MobilenetV2/expanded_conv_2/project/BatchNorm/FusedBatchNorm", "op": "_FusedConv2D", "input": ["MobilenetV2/expanded_conv_2/depthwise/depthwise", "MobilenetV2/expanded_conv_2/project/Conv2D_weights", "MobilenetV2/expanded_conv_2/project/Conv2D_bn_offset"], "device": "/device:CPU:0", "attr": {"num_args": {"i": "1"}, "dilations": {"list": {"i": ["1", "1", "1", "1"]}}, "strides": {"list": {"i": ["1", "1", "1", "1"]}}, "padding": {"s": "U0FNRQ=="}, "explicit_paddings": {"list": {}}, "fused_ops": {"list": {"s": ["Qmlhc0FkZA=="]}}, "data_format": {"s": "TkhXQw=="}, "epsilon": {"f": 0.0}, "use_cudnn_on_gpu": {"b": true}, "T": {"type": "DT_FLOAT"}}}, {"name": "MobilenetV2/expanded_conv_2/add", "op": "Add", "input": ["MobilenetV2/expanded_conv_2/project/BatchNorm/FusedBatchNorm", "MobilenetV2/expanded_conv_1/project/BatchNorm/FusedBatchNorm"], "attr": {"T": {"type": "DT_FLOAT"}}}, {"name": "MobilenetV2/expanded_conv_3/expand/Relu6", "op": "_FusedConv2D", "input": ["MobilenetV2/expanded_conv_2/add", "MobilenetV2/expanded_conv_3/expand/Conv2D_weights", "MobilenetV2/expanded_conv_3/expand/Conv2D_bn_offset"], "device": "/device:CPU:0", "attr": {"fused_ops": {"list": {"s": ["Qmlhc0FkZA==", "UmVsdTY="]}}, "strides": {"list": {"i": ["1", "1", "1", "1"]}}, "data_format": {"s": "TkhXQw=="}, "use_cudnn_on_gpu": {"b": true}, "dilations": {"list": {"i": ["1", "1", "1", "1"]}}, "num_args": {"i": "1"}, "T": {"type": "DT_FLOAT"}, "padding": {"s": "U0FNRQ=="}, "epsilon": {"f": 0.0}, "explicit_paddings": {"list": {}}}}, {"name": "MobilenetV2/expanded_conv_3/depthwise/depthwise", "op": "FusedDepthwiseConv2dNative", "input": ["MobilenetV2/expanded_conv_3/expand/Relu6", "MobilenetV2/expanded_conv_3/depthwise/depthwise_weights", "MobilenetV2/expanded_conv_3/depthwise/depthwise_bn_offset"], "attr": {"num_args": {"i": "1"}, "dilations": {"list": {"i": ["1", "1", "1", "1"]}}, "explicit_paddings": {"list": {}}, "strides": {"list": {"i": ["1", "2", "2", "1"]}}, "fused_ops": {"list": {"s": ["Qmlhc0FkZA==", "UmVsdTY="]}}, "T": {"type": "DT_FLOAT"}, "padding": {"s": "U0FNRQ=="}, "data_format": {"s": "TkhXQw=="}}}, {"name": "MobilenetV2/expanded_conv_3/project/BatchNorm/FusedBatchNorm", "op": "_FusedConv2D", "input": ["MobilenetV2/expanded_conv_3/depthwise/depthwise", "MobilenetV2/expanded_conv_3/project/Conv2D_weights", "MobilenetV2/expanded_conv_3/project/Conv2D_bn_offset"], "device": "/device:CPU:0", "attr": {"dilations": {"list": {"i": ["1", "1", "1", "1"]}}, "num_args": {"i": "1"}, "strides": {"list": {"i": ["1", "1", "1", "1"]}}, "epsilon": {"f": 0.0}, "explicit_paddings": {"list": {}}, "padding": {"s": "U0FNRQ=="}, "fused_ops": {"list": {"s": ["Qmlhc0FkZA=="]}}, "T": {"type": "DT_FLOAT"}, "data_format": {"s": "TkhXQw=="}, "use_cudnn_on_gpu": {"b": true}}}, {"name": "MobilenetV2/expanded_conv_4/expand/Relu6", "op": "_FusedConv2D", "input": ["MobilenetV2/expanded_conv_3/project/BatchNorm/FusedBatchNorm", "MobilenetV2/expanded_conv_4/expand/Conv2D_weights", "MobilenetV2/expanded_conv_4/expand/Conv2D_bn_offset"], "device": "/device:CPU:0", "attr": {"num_args": {"i": "1"}, "fused_ops": {"list": {"s": ["Qmlhc0FkZA==", "UmVsdTY="]}}, "epsilon": {"f": 0.0}, "explicit_paddings": {"list": {}}, "strides": {"list": {"i": ["1", "1", "1", "1"]}}, "use_cudnn_on_gpu": {"b": true}, "data_format": {"s": "TkhXQw=="}, "T": {"type": "DT_FLOAT"}, "padding": {"s": "U0FNRQ=="}, "dilations": {"list": {"i": ["1", "1", "1", "1"]}}}}, {"name": "MobilenetV2/expanded_conv_4/depthwise/depthwise", "op": "FusedDepthwiseConv2dNative", "input": ["MobilenetV2/expanded_conv_4/expand/Relu6", "MobilenetV2/expanded_conv_4/depthwise/depthwise_weights", "MobilenetV2/expanded_conv_4/depthwise/depthwise_bn_offset"], "attr": {"T": {"type": "DT_FLOAT"}, "data_format": {"s": "TkhXQw=="}, "num_args": {"i": "1"}, "strides": {"list": {"i": ["1", "1", "1", "1"]}}, "dilations": {"list": {"i": ["1", "1", "1", "1"]}}, "explicit_paddings": {"list": {}}, "padding": {"s": "U0FNRQ=="}, "fused_ops": {"list": {"s": ["Qmlhc0FkZA==", "UmVsdTY="]}}}}, {"name": "MobilenetV2/expanded_conv_4/project/BatchNorm/FusedBatchNorm", "op": "_FusedConv2D", "input": ["MobilenetV2/expanded_conv_4/depthwise/depthwise", "MobilenetV2/expanded_conv_4/project/Conv2D_weights", "MobilenetV2/expanded_conv_4/project/Conv2D_bn_offset"], "device": "/device:CPU:0", "attr": {"strides": {"list": {"i": ["1", "1", "1", "1"]}}, "epsilon": {"f": 0.0}, "use_cudnn_on_gpu": {"b": true}, "T": {"type": "DT_FLOAT"}, "data_format": {"s": "TkhXQw=="}, "num_args": {"i": "1"}, "padding": {"s": "U0FNRQ=="}, "dilations": {"list": {"i": ["1", "1", "1", "1"]}}, "explicit_paddings": {"list": {}}, "fused_ops": {"list": {"s": ["Qmlhc0FkZA=="]}}}}, {"name": "MobilenetV2/expanded_conv_4/add", "op": "Add", "input": ["MobilenetV2/expanded_conv_4/project/BatchNorm/FusedBatchNorm", "MobilenetV2/expanded_conv_3/project/BatchNorm/FusedBatchNorm"], "attr": {"T": {"type": "DT_FLOAT"}}}, {"name": "MobilenetV2/expanded_conv_5/expand/Relu6", "op": "_FusedConv2D", "input": ["MobilenetV2/expanded_conv_4/add", "MobilenetV2/expanded_conv_5/expand/Conv2D_weights", "MobilenetV2/expanded_conv_5/expand/Conv2D_bn_offset"], "device": "/device:CPU:0", "attr": {"explicit_paddings": {"list": {}}, "padding": {"s": "U0FNRQ=="}, "epsilon": {"f": 0.0}, "strides": {"list": {"i": ["1", "1", "1", "1"]}}, "use_cudnn_on_gpu": {"b": true}, "fused_ops": {"list": {"s": ["Qmlhc0FkZA==", "UmVsdTY="]}}, "data_format": {"s": "TkhXQw=="}, "num_args": {"i": "1"}, "dilations": {"list": {"i": ["1", "1", "1", "1"]}}, "T": {"type": "DT_FLOAT"}}}, {"name": "MobilenetV2/expanded_conv_5/depthwise/depthwise", "op": "FusedDepthwiseConv2dNative", "input": ["MobilenetV2/expanded_conv_5/expand/Relu6", "MobilenetV2/expanded_conv_5/depthwise/depthwise_weights", "MobilenetV2/expanded_conv_5/depthwise/depthwise_bn_offset"], "attr": {"padding": {"s": "U0FNRQ=="}, "explicit_paddings": {"list": {}}, "fused_ops": {"list": {"s": ["Qmlhc0FkZA==", "UmVsdTY="]}}, "T": {"type": "DT_FLOAT"}, "data_format": {"s": "TkhXQw=="}, "dilations": {"list": {"i": ["1", "1", "1", "1"]}}, "strides": {"list": {"i": ["1", "1", "1", "1"]}}, "num_args": {"i": "1"}}}, {"name": "MobilenetV2/expanded_conv_5/project/BatchNorm/FusedBatchNorm", "op": "_FusedConv2D", "input": ["MobilenetV2/expanded_conv_5/depthwise/depthwise", "MobilenetV2/expanded_conv_5/project/Conv2D_weights", "MobilenetV2/expanded_conv_5/project/Conv2D_bn_offset"], "device": "/device:CPU:0", "attr": {"data_format": {"s": "TkhXQw=="}, "fused_ops": {"list": {"s": ["Qmlhc0FkZA=="]}}, "use_cudnn_on_gpu": {"b": true}, "num_args": {"i": "1"}, "dilations": {"list": {"i": ["1", "1", "1", "1"]}}, "padding": {"s": "U0FNRQ=="}, "epsilon": {"f": 0.0}, "T": {"type": "DT_FLOAT"}, "explicit_paddings": {"list": {}}, "strides": {"list": {"i": ["1", "1", "1", "1"]}}}}, {"name": "MobilenetV2/expanded_conv_5/add", "op": "Add", "input": ["MobilenetV2/expanded_conv_5/project/BatchNorm/FusedBatchNorm", "MobilenetV2/expanded_conv_4/add"], "attr": {"T": {"type": "DT_FLOAT"}}}, {"name": "MobilenetV2/expanded_conv_6/expand/Relu6", "op": "_FusedConv2D", "input": ["MobilenetV2/expanded_conv_5/add", "MobilenetV2/expanded_conv_6/expand/Conv2D_weights", "MobilenetV2/expanded_conv_6/expand/Conv2D_bn_offset"], "device": "/device:CPU:0", "attr": {"epsilon": {"f": 0.0}, "T": {"type": "DT_FLOAT"}, "use_cudnn_on_gpu": {"b": true}, "fused_ops": {"list": {"s": ["Qmlhc0FkZA==", "UmVsdTY="]}}, "data_format": {"s": "TkhXQw=="}, "num_args": {"i": "1"}, "padding": {"s": "U0FNRQ=="}, "strides": {"list": {"i": ["1", "1", "1", "1"]}}, "dilations": {"list": {"i": ["1", "1", "1", "1"]}}, "explicit_paddings": {"list": {}}}}, {"name": "MobilenetV2/expanded_conv_6/depthwise/depthwise", "op": "FusedDepthwiseConv2dNative", "input": ["MobilenetV2/expanded_conv_6/expand/Relu6", "MobilenetV2/expanded_conv_6/depthwise/depthwise_weights", "MobilenetV2/expanded_conv_6/depthwise/depthwise_bn_offset"], "attr": {"fused_ops": {"list": {"s": ["Qmlhc0FkZA==", "UmVsdTY="]}}, "num_args": {"i": "1"}, "data_format": {"s": "TkhXQw=="}, "T": {"type": "DT_FLOAT"}, "dilations": {"list": {"i": ["1", "1", "1", "1"]}}, "explicit_paddings": {"list": {}}, "padding": {"s": "U0FNRQ=="}, "strides": {"list": {"i": ["1", "1", "1", "1"]}}}}, {"name": "MobilenetV2/expanded_conv_6/project/BatchNorm/FusedBatchNorm", "op": "_FusedConv2D", "input": ["MobilenetV2/expanded_conv_6/depthwise/depthwise", "MobilenetV2/expanded_conv_6/project/Conv2D_weights", "MobilenetV2/expanded_conv_6/project/Conv2D_bn_offset"], "device": "/device:CPU:0", "attr": {"dilations": {"list": {"i": ["1", "1", "1", "1"]}}, "explicit_paddings": {"list": {}}, "padding": {"s": "U0FNRQ=="}, "epsilon": {"f": 0.0}, "strides": {"list": {"i": ["1", "1", "1", "1"]}}, "use_cudnn_on_gpu": {"b": true}, "data_format": {"s": "TkhXQw=="}, "fused_ops": {"list": {"s": ["Qmlhc0FkZA=="]}}, "num_args": {"i": "1"}, "T": {"type": "DT_FLOAT"}}}, {"name": "MobilenetV2/expanded_conv_7/expand/Relu6", "op": "_FusedConv2D", "input": ["MobilenetV2/expanded_conv_6/project/BatchNorm/FusedBatchNorm", "MobilenetV2/expanded_conv_7/expand/Conv2D_weights", "MobilenetV2/expanded_conv_7/expand/Conv2D_bn_offset"], "device": "/device:CPU:0", "attr": {"num_args": {"i": "1"}, "dilations": {"list": {"i": ["1", "1", "1", "1"]}}, "epsilon": {"f": 0.0}, "explicit_paddings": {"list": {}}, "fused_ops": {"list": {"s": ["Qmlhc0FkZA==", "UmVsdTY="]}}, "strides": {"list": {"i": ["1", "1", "1", "1"]}}, "data_format": {"s": "TkhXQw=="}, "padding": {"s": "U0FNRQ=="}, "use_cudnn_on_gpu": {"b": true}, "T": {"type": "DT_FLOAT"}}}, {"name": "MobilenetV2/expanded_conv_7/depthwise/depthwise/SpaceToBatchND", "op": "SpaceToBatchND", "input": ["MobilenetV2/expanded_conv_7/expand/Relu6", "MobilenetV2/expanded_conv_7/depthwise/depthwise/SpaceToBatchND/block_shape", "MobilenetV2/expanded_conv_7/depthwise/depthwise/SpaceToBatchND/paddings"], "attr": {"T": {"type": "DT_FLOAT"}, "Tblock_shape": {"type": "DT_INT32"}, "Tpaddings": {"type": "DT_INT32"}}}, {"name": "MobilenetV2/expanded_conv_7/depthwise/depthwise", "op": "DepthwiseConv2dNative", "input": ["MobilenetV2/expanded_conv_7/depthwise/depthwise/SpaceToBatchND", "MobilenetV2/expanded_conv_7/depthwise/depthwise_weights"], "attr": {"data_format": {"s": "TkhXQw=="}, "padding": {"s": "VkFMSUQ="}, "dilations": {"list": {"i": ["1", "1", "1", "1"]}}, "T": {"type": "DT_FLOAT"}, "explicit_paddings": {"list": {}}, "strides": {"list": {"i": ["1", "1", "1", "1"]}}}}, {"name": "MobilenetV2/expanded_conv_7/depthwise/depthwise/BatchToSpaceND", "op": "BatchToSpaceND", "input": ["MobilenetV2/expanded_conv_7/depthwise/depthwise", "MobilenetV2/expanded_conv_7/depthwise/depthwise/BatchToSpaceND/block_shape", "MobilenetV2/expanded_conv_7/depthwise/depthwise/BatchToSpaceND/crops"], "attr": {"T": {"type": "DT_FLOAT"}, "Tblock_shape": {"type": "DT_INT32"}, "Tcrops": {"type": "DT_INT32"}}}, {"name": "MobilenetV2/expanded_conv_7/depthwise/BatchNorm/FusedBatchNorm/Mul", "op": "Mul", "input": ["MobilenetV2/expanded_conv_7/depthwise/depthwise/BatchToSpaceND", "MobilenetV2/expanded_conv_7/depthwise/BatchNorm/FusedBatchNorm/Scaled"], "attr": {"T": {"type": "DT_FLOAT"}}}, {"name": "MobilenetV2/expanded_conv_7/depthwise/BatchNorm/FusedBatchNorm", "op": "Add", "input": ["MobilenetV2/expanded_conv_7/depthwise/BatchNorm/FusedBatchNorm/Mul", "MobilenetV2/expanded_conv_7/depthwise/BatchNorm/FusedBatchNorm/Offset"], "attr": {"T": {"type": "DT_FLOAT"}}}, {"name": "MobilenetV2/expanded_conv_7/depthwise/Relu6", "op": "Relu6", "input": ["MobilenetV2/expanded_conv_7/depthwise/BatchNorm/FusedBatchNorm"], "attr": {"T": {"type": "DT_FLOAT"}}}, {"name": "MobilenetV2/expanded_conv_7/project/BatchNorm/FusedBatchNorm", "op": "_FusedConv2D", "input": ["MobilenetV2/expanded_conv_7/depthwise/Relu6", "MobilenetV2/expanded_conv_7/project/Conv2D_weights", "MobilenetV2/expanded_conv_7/project/Conv2D_bn_offset"], "device": "/device:CPU:0", "attr": {"fused_ops": {"list": {"s": ["Qmlhc0FkZA=="]}}, "strides": {"list": {"i": ["1", "1", "1", "1"]}}, "T": {"type": "DT_FLOAT"}, "dilations": {"list": {"i": ["1", "1", "1", "1"]}}, "data_format": {"s": "TkhXQw=="}, "use_cudnn_on_gpu": {"b": true}, "epsilon": {"f": 0.0}, "explicit_paddings": {"list": {}}, "num_args": {"i": "1"}, "padding": {"s": "U0FNRQ=="}}}, {"name": "MobilenetV2/expanded_conv_7/add", "op": "Add", "input": ["MobilenetV2/expanded_conv_7/project/BatchNorm/FusedBatchNorm", "MobilenetV2/expanded_conv_6/project/BatchNorm/FusedBatchNorm"], "attr": {"T": {"type": "DT_FLOAT"}}}, {"name": "MobilenetV2/expanded_conv_8/expand/Relu6", "op": "_FusedConv2D", "input": ["MobilenetV2/expanded_conv_7/add", "MobilenetV2/expanded_conv_8/expand/Conv2D_weights", "MobilenetV2/expanded_conv_8/expand/Conv2D_bn_offset"], "device": "/device:CPU:0", "attr": {"explicit_paddings": {"list": {}}, "padding": {"s": "U0FNRQ=="}, "epsilon": {"f": 0.0}, "fused_ops": {"list": {"s": ["Qmlhc0FkZA==", "UmVsdTY="]}}, "dilations": {"list": {"i": ["1", "1", "1", "1"]}}, "data_format": {"s": "TkhXQw=="}, "strides": {"list": {"i": ["1", "1", "1", "1"]}}, "use_cudnn_on_gpu": {"b": true}, "T": {"type": "DT_FLOAT"}, "num_args": {"i": "1"}}}, {"name": "MobilenetV2/expanded_conv_8/depthwise/depthwise/SpaceToBatchND", "op": "SpaceToBatchND", "input": ["MobilenetV2/expanded_conv_8/expand/Relu6", "MobilenetV2/expanded_conv_8/depthwise/depthwise/SpaceToBatchND/block_shape", "MobilenetV2/expanded_conv_8/depthwise/depthwise/SpaceToBatchND/paddings"], "attr": {"Tblock_shape": {"type": "DT_INT32"}, "T": {"type": "DT_FLOAT"}, "Tpaddings": {"type": "DT_INT32"}}}, {"name": "MobilenetV2/expanded_conv_8/depthwise/depthwise", "op": "DepthwiseConv2dNative", "input": ["MobilenetV2/expanded_conv_8/depthwise/depthwise/SpaceToBatchND", "MobilenetV2/expanded_conv_8/depthwise/depthwise_weights"], "attr": {"padding": {"s": "VkFMSUQ="}, "explicit_paddings": {"list": {}}, "T": {"type": "DT_FLOAT"}, "dilations": {"list": {"i": ["1", "1", "1", "1"]}}, "strides": {"list": {"i": ["1", "1", "1", "1"]}}, "data_format": {"s": "TkhXQw=="}}}, {"name": "MobilenetV2/expanded_conv_8/depthwise/depthwise/BatchToSpaceND", "op": "BatchToSpaceND", "input": ["MobilenetV2/expanded_conv_8/depthwise/depthwise", "MobilenetV2/expanded_conv_8/depthwise/depthwise/BatchToSpaceND/block_shape", "MobilenetV2/expanded_conv_8/depthwise/depthwise/BatchToSpaceND/crops"], "attr": {"Tblock_shape": {"type": "DT_INT32"}, "T": {"type": "DT_FLOAT"}, "Tcrops": {"type": "DT_INT32"}}}, {"name": "MobilenetV2/expanded_conv_8/depthwise/BatchNorm/FusedBatchNorm/Mul", "op": "Mul", "input": ["MobilenetV2/expanded_conv_8/depthwise/depthwise/BatchToSpaceND", "MobilenetV2/expanded_conv_8/depthwise/BatchNorm/FusedBatchNorm/Scaled"], "attr": {"T": {"type": "DT_FLOAT"}}}, {"name": "MobilenetV2/expanded_conv_8/depthwise/BatchNorm/FusedBatchNorm", "op": "Add", "input": ["MobilenetV2/expanded_conv_8/depthwise/BatchNorm/FusedBatchNorm/Mul", "MobilenetV2/expanded_conv_8/depthwise/BatchNorm/FusedBatchNorm/Offset"], "attr": {"T": {"type": "DT_FLOAT"}}}, {"name": "MobilenetV2/expanded_conv_8/depthwise/Relu6", "op": "Relu6", "input": ["MobilenetV2/expanded_conv_8/depthwise/BatchNorm/FusedBatchNorm"], "attr": {"T": {"type": "DT_FLOAT"}}}, {"name": "MobilenetV2/expanded_conv_8/project/BatchNorm/FusedBatchNorm", "op": "_FusedConv2D", "input": ["MobilenetV2/expanded_conv_8/depthwise/Relu6", "MobilenetV2/expanded_conv_8/project/Conv2D_weights", "MobilenetV2/expanded_conv_8/project/Conv2D_bn_offset"], "device": "/device:CPU:0", "attr": {"epsilon": {"f": 0.0}, "strides": {"list": {"i": ["1", "1", "1", "1"]}}, "T": {"type": "DT_FLOAT"}, "use_cudnn_on_gpu": {"b": true}, "dilations": {"list": {"i": ["1", "1", "1", "1"]}}, "padding": {"s": "U0FNRQ=="}, "explicit_paddings": {"list": {}}, "data_format": {"s": "TkhXQw=="}, "num_args": {"i": "1"}, "fused_ops": {"list": {"s": ["Qmlhc0FkZA=="]}}}}, {"name": "MobilenetV2/expanded_conv_8/add", "op": "Add", "input": ["MobilenetV2/expanded_conv_8/project/BatchNorm/FusedBatchNorm", "MobilenetV2/expanded_conv_7/add"], "attr": {"T": {"type": "DT_FLOAT"}}}, {"name": "MobilenetV2/expanded_conv_9/expand/Relu6", "op": "_FusedConv2D", "input": ["MobilenetV2/expanded_conv_8/add", "MobilenetV2/expanded_conv_9/expand/Conv2D_weights", "MobilenetV2/expanded_conv_9/expand/Conv2D_bn_offset"], "device": "/device:CPU:0", "attr": {"dilations": {"list": {"i": ["1", "1", "1", "1"]}}, "data_format": {"s": "TkhXQw=="}, "explicit_paddings": {"list": {}}, "num_args": {"i": "1"}, "epsilon": {"f": 0.0}, "padding": {"s": "U0FNRQ=="}, "strides": {"list": {"i": ["1", "1", "1", "1"]}}, "fused_ops": {"list": {"s": ["Qmlhc0FkZA==", "UmVsdTY="]}}, "T": {"type": "DT_FLOAT"}, "use_cudnn_on_gpu": {"b": true}}}, {"name": "MobilenetV2/expanded_conv_9/depthwise/depthwise/SpaceToBatchND", "op": "SpaceToBatchND", "input": ["MobilenetV2/expanded_conv_9/expand/Relu6", "MobilenetV2/expanded_conv_9/depthwise/depthwise/SpaceToBatchND/block_shape", "MobilenetV2/expanded_conv_9/depthwise/depthwise/SpaceToBatchND/paddings"], "attr": {"Tpaddings": {"type": "DT_INT32"}, "T": {"type": "DT_FLOAT"}, "Tblock_shape": {"type": "DT_INT32"}}}, {"name": "MobilenetV2/expanded_conv_9/depthwise/depthwise", "op": "DepthwiseConv2dNative", "input": ["MobilenetV2/expanded_conv_9/depthwise/depthwise/SpaceToBatchND", "MobilenetV2/expanded_conv_9/depthwise/depthwise_weights"], "attr": {"explicit_paddings": {"list": {}}, "strides": {"list": {"i": ["1", "1", "1", "1"]}}, "padding": {"s": "VkFMSUQ="}, "dilations": {"list": {"i": ["1", "1", "1", "1"]}}, "data_format": {"s": "TkhXQw=="}, "T": {"type": "DT_FLOAT"}}}, {"name": "MobilenetV2/expanded_conv_9/depthwise/depthwise/BatchToSpaceND", "op": "BatchToSpaceND", "input": ["MobilenetV2/expanded_conv_9/depthwise/depthwise", "MobilenetV2/expanded_conv_9/depthwise/depthwise/BatchToSpaceND/block_shape", "MobilenetV2/expanded_conv_9/depthwise/depthwise/BatchToSpaceND/crops"], "attr": {"Tcrops": {"type": "DT_INT32"}, "T": {"type": "DT_FLOAT"}, "Tblock_shape": {"type": "DT_INT32"}}}, {"name": "MobilenetV2/expanded_conv_9/depthwise/BatchNorm/FusedBatchNorm/Mul", "op": "Mul", "input": ["MobilenetV2/expanded_conv_9/depthwise/depthwise/BatchToSpaceND", "MobilenetV2/expanded_conv_9/depthwise/BatchNorm/FusedBatchNorm/Scaled"], "attr": {"T": {"type": "DT_FLOAT"}}}, {"name": "MobilenetV2/expanded_conv_9/depthwise/BatchNorm/FusedBatchNorm", "op": "Add", "input": ["MobilenetV2/expanded_conv_9/depthwise/BatchNorm/FusedBatchNorm/Mul", "MobilenetV2/expanded_conv_9/depthwise/BatchNorm/FusedBatchNorm/Offset"], "attr": {"T": {"type": "DT_FLOAT"}}}, {"name": "MobilenetV2/expanded_conv_9/depthwise/Relu6", "op": "Relu6", "input": ["MobilenetV2/expanded_conv_9/depthwise/BatchNorm/FusedBatchNorm"], "attr": {"T": {"type": "DT_FLOAT"}}}, {"name": "MobilenetV2/expanded_conv_9/project/BatchNorm/FusedBatchNorm", "op": "_FusedConv2D", "input": ["MobilenetV2/expanded_conv_9/depthwise/Relu6", "MobilenetV2/expanded_conv_9/project/Conv2D_weights", "MobilenetV2/expanded_conv_9/project/Conv2D_bn_offset"], "device": "/device:CPU:0", "attr": {"fused_ops": {"list": {"s": ["Qmlhc0FkZA=="]}}, "use_cudnn_on_gpu": {"b": true}, "padding": {"s": "U0FNRQ=="}, "dilations": {"list": {"i": ["1", "1", "1", "1"]}}, "data_format": {"s": "TkhXQw=="}, "strides": {"list": {"i": ["1", "1", "1", "1"]}}, "explicit_paddings": {"list": {}}, "num_args": {"i": "1"}, "epsilon": {"f": 0.0}, "T": {"type": "DT_FLOAT"}}}, {"name": "MobilenetV2/expanded_conv_9/add", "op": "Add", "input": ["MobilenetV2/expanded_conv_9/project/BatchNorm/FusedBatchNorm", "MobilenetV2/expanded_conv_8/add"], "attr": {"T": {"type": "DT_FLOAT"}}}, {"name": "MobilenetV2/expanded_conv_10/expand/Relu6", "op": "_FusedConv2D", "input": ["MobilenetV2/expanded_conv_9/add", "MobilenetV2/expanded_conv_10/expand/Conv2D_weights", "MobilenetV2/expanded_conv_10/expand/Conv2D_bn_offset"], "device": "/device:CPU:0", "attr": {"fused_ops": {"list": {"s": ["Qmlhc0FkZA==", "UmVsdTY="]}}, "strides": {"list": {"i": ["1", "1", "1", "1"]}}, "use_cudnn_on_gpu": {"b": true}, "T": {"type": "DT_FLOAT"}, "dilations": {"list": {"i": ["1", "1", "1", "1"]}}, "num_args": {"i": "1"}, "data_format": {"s": "TkhXQw=="}, "explicit_paddings": {"list": {}}, "padding": {"s": "U0FNRQ=="}, "epsilon": {"f": 0.0}}}, {"name": "MobilenetV2/expanded_conv_10/depthwise/depthwise/SpaceToBatchND", "op": "SpaceToBatchND", "input": ["MobilenetV2/expanded_conv_10/expand/Relu6", "MobilenetV2/expanded_conv_10/depthwise/depthwise/SpaceToBatchND/block_shape", "MobilenetV2/expanded_conv_10/depthwise/depthwise/SpaceToBatchND/paddings"], "attr": {"Tblock_shape": {"type": "DT_INT32"}, "T": {"type": "DT_FLOAT"}, "Tpaddings": {"type": "DT_INT32"}}}, {"name": "MobilenetV2/expanded_conv_10/depthwise/depthwise", "op": "DepthwiseConv2dNative", "input": ["MobilenetV2/expanded_conv_10/depthwise/depthwise/SpaceToBatchND", "MobilenetV2/expanded_conv_10/depthwise/depthwise_weights"], "attr": {"strides": {"list": {"i": ["1", "1", "1", "1"]}}, "explicit_paddings": {"list": {}}, "padding": {"s": "VkFMSUQ="}, "T": {"type": "DT_FLOAT"}, "dilations": {"list": {"i": ["1", "1", "1", "1"]}}, "data_format": {"s": "TkhXQw=="}}}, {"name": "MobilenetV2/expanded_conv_10/depthwise/depthwise/BatchToSpaceND", "op": "BatchToSpaceND", "input": ["MobilenetV2/expanded_conv_10/depthwise/depthwise", "MobilenetV2/expanded_conv_10/depthwise/depthwise/BatchToSpaceND/block_shape", "MobilenetV2/expanded_conv_10/depthwise/depthwise/BatchToSpaceND/crops"], "attr": {"Tblock_shape": {"type": "DT_INT32"}, "T": {"type": "DT_FLOAT"}, "Tcrops": {"type": "DT_INT32"}}}, {"name": "MobilenetV2/expanded_conv_10/depthwise/BatchNorm/FusedBatchNorm/Mul", "op": "Mul", "input": ["MobilenetV2/expanded_conv_10/depthwise/depthwise/BatchToSpaceND", "MobilenetV2/expanded_conv_10/depthwise/BatchNorm/FusedBatchNorm/Scaled"], "attr": {"T": {"type": "DT_FLOAT"}}}, {"name": "MobilenetV2/expanded_conv_10/depthwise/BatchNorm/FusedBatchNorm", "op": "Add", "input": ["MobilenetV2/expanded_conv_10/depthwise/BatchNorm/FusedBatchNorm/Mul", "MobilenetV2/expanded_conv_10/depthwise/BatchNorm/FusedBatchNorm/Offset"], "attr": {"T": {"type": "DT_FLOAT"}}}, {"name": "MobilenetV2/expanded_conv_10/depthwise/Relu6", "op": "Relu6", "input": ["MobilenetV2/expanded_conv_10/depthwise/BatchNorm/FusedBatchNorm"], "attr": {"T": {"type": "DT_FLOAT"}}}, {"name": "MobilenetV2/expanded_conv_10/project/BatchNorm/FusedBatchNorm", "op": "_FusedConv2D", "input": ["MobilenetV2/expanded_conv_10/depthwise/Relu6", "MobilenetV2/expanded_conv_10/project/Conv2D_weights", "MobilenetV2/expanded_conv_10/project/Conv2D_bn_offset"], "device": "/device:CPU:0", "attr": {"use_cudnn_on_gpu": {"b": true}, "data_format": {"s": "TkhXQw=="}, "strides": {"list": {"i": ["1", "1", "1", "1"]}}, "explicit_paddings": {"list": {}}, "num_args": {"i": "1"}, "epsilon": {"f": 0.0}, "fused_ops": {"list": {"s": ["Qmlhc0FkZA=="]}}, "T": {"type": "DT_FLOAT"}, "padding": {"s": "U0FNRQ=="}, "dilations": {"list": {"i": ["1", "1", "1", "1"]}}}}, {"name": "MobilenetV2/expanded_conv_11/expand/Relu6", "op": "_FusedConv2D", "input": ["MobilenetV2/expanded_conv_10/project/BatchNorm/FusedBatchNorm", "MobilenetV2/expanded_conv_11/expand/Conv2D_weights", "MobilenetV2/expanded_conv_11/expand/Conv2D_bn_offset"], "device": "/device:CPU:0", "attr": {"dilations": {"list": {"i": ["1", "1", "1", "1"]}}, "data_format": {"s": "TkhXQw=="}, "use_cudnn_on_gpu": {"b": true}, "num_args": {"i": "1"}, "fused_ops": {"list": {"s": ["Qmlhc0FkZA==", "UmVsdTY="]}}, "T": {"type": "DT_FLOAT"}, "explicit_paddings": {"list": {}}, "strides": {"list": {"i": ["1", "1", "1", "1"]}}, "epsilon": {"f": 0.0}, "padding": {"s": "U0FNRQ=="}}}, {"name": "MobilenetV2/expanded_conv_11/depthwise/depthwise/SpaceToBatchND", "op": "SpaceToBatchND", "input": ["MobilenetV2/expanded_conv_11/expand/Relu6", "MobilenetV2/expanded_conv_11/depthwise/depthwise/SpaceToBatchND/block_shape", "MobilenetV2/expanded_conv_11/depthwise/depthwise/SpaceToBatchND/paddings"], "attr": {"Tblock_shape": {"type": "DT_INT32"}, "Tpaddings": {"type": "DT_INT32"}, "T": {"type": "DT_FLOAT"}}}, {"name": "MobilenetV2/expanded_conv_11/depthwise/depthwise", "op": "DepthwiseConv2dNative", "input": ["MobilenetV2/expanded_conv_11/depthwise/depthwise/SpaceToBatchND", "MobilenetV2/expanded_conv_11/depthwise/depthwise_weights"], "attr": {"data_format": {"s": "TkhXQw=="}, "strides": {"list": {"i": ["1", "1", "1", "1"]}}, "explicit_paddings": {"list": {}}, "padding": {"s": "VkFMSUQ="}, "T": {"type": "DT_FLOAT"}, "dilations": {"list": {"i": ["1", "1", "1", "1"]}}}}, {"name": "MobilenetV2/expanded_conv_11/depthwise/depthwise/BatchToSpaceND", "op": "BatchToSpaceND", "input": ["MobilenetV2/expanded_conv_11/depthwise/depthwise", "MobilenetV2/expanded_conv_11/depthwise/depthwise/BatchToSpaceND/block_shape", "MobilenetV2/expanded_conv_11/depthwise/depthwise/BatchToSpaceND/crops"], "attr": {"Tblock_shape": {"type": "DT_INT32"}, "T": {"type": "DT_FLOAT"}, "Tcrops": {"type": "DT_INT32"}}}, {"name": "MobilenetV2/expanded_conv_11/depthwise/BatchNorm/FusedBatchNorm/Mul", "op": "Mul", "input": ["MobilenetV2/expanded_conv_11/depthwise/depthwise/BatchToSpaceND", "MobilenetV2/expanded_conv_11/depthwise/BatchNorm/FusedBatchNorm/Scaled"], "attr": {"T": {"type": "DT_FLOAT"}}}, {"name": "MobilenetV2/expanded_conv_11/depthwise/BatchNorm/FusedBatchNorm", "op": "Add", "input": ["MobilenetV2/expanded_conv_11/depthwise/BatchNorm/FusedBatchNorm/Mul", "MobilenetV2/expanded_conv_11/depthwise/BatchNorm/FusedBatchNorm/Offset"], "attr": {"T": {"type": "DT_FLOAT"}}}, {"name": "MobilenetV2/expanded_conv_11/depthwise/Relu6", "op": "Relu6", "input": ["MobilenetV2/expanded_conv_11/depthwise/BatchNorm/FusedBatchNorm"], "attr": {"T": {"type": "DT_FLOAT"}}}, {"name": "MobilenetV2/expanded_conv_11/project/BatchNorm/FusedBatchNorm", "op": "_FusedConv2D", "input": ["MobilenetV2/expanded_conv_11/depthwise/Relu6", "MobilenetV2/expanded_conv_11/project/Conv2D_weights", "MobilenetV2/expanded_conv_11/project/Conv2D_bn_offset"], "device": "/device:CPU:0", "attr": {"T": {"type": "DT_FLOAT"}, "explicit_paddings": {"list": {}}, "num_args": {"i": "1"}, "padding": {"s": "U0FNRQ=="}, "epsilon": {"f": 0.0}, "fused_ops": {"list": {"s": ["Qmlhc0FkZA=="]}}, "strides": {"list": {"i": ["1", "1", "1", "1"]}}, "dilations": {"list": {"i": ["1", "1", "1", "1"]}}, "use_cudnn_on_gpu": {"b": true}, "data_format": {"s": "TkhXQw=="}}}, {"name": "MobilenetV2/expanded_conv_11/add", "op": "Add", "input": ["MobilenetV2/expanded_conv_11/project/BatchNorm/FusedBatchNorm", "MobilenetV2/expanded_conv_10/project/BatchNorm/FusedBatchNorm"], "attr": {"T": {"type": "DT_FLOAT"}}}, {"name": "MobilenetV2/expanded_conv_12/expand/Relu6", "op": "_FusedConv2D", "input": ["MobilenetV2/expanded_conv_11/add", "MobilenetV2/expanded_conv_12/expand/Conv2D_weights", "MobilenetV2/expanded_conv_12/expand/Conv2D_bn_offset"], "device": "/device:CPU:0", "attr": {"num_args": {"i": "1"}, "explicit_paddings": {"list": {}}, "padding": {"s": "U0FNRQ=="}, "fused_ops": {"list": {"s": ["Qmlhc0FkZA==", "UmVsdTY="]}}, "epsilon": {"f": 0.0}, "dilations": {"list": {"i": ["1", "1", "1", "1"]}}, "strides": {"list": {"i": ["1", "1", "1", "1"]}}, "data_format": {"s": "TkhXQw=="}, "use_cudnn_on_gpu": {"b": true}, "T": {"type": "DT_FLOAT"}}}, {"name": "MobilenetV2/expanded_conv_12/depthwise/depthwise/SpaceToBatchND", "op": "SpaceToBatchND", "input": ["MobilenetV2/expanded_conv_12/expand/Relu6", "MobilenetV2/expanded_conv_12/depthwise/depthwise/SpaceToBatchND/block_shape", "MobilenetV2/expanded_conv_12/depthwise/depthwise/SpaceToBatchND/paddings"], "attr": {"Tblock_shape": {"type": "DT_INT32"}, "Tpaddings": {"type": "DT_INT32"}, "T": {"type": "DT_FLOAT"}}}, {"name": "MobilenetV2/expanded_conv_12/depthwise/depthwise", "op": "DepthwiseConv2dNative", "input": ["MobilenetV2/expanded_conv_12/depthwise/depthwise/SpaceToBatchND", "MobilenetV2/expanded_conv_12/depthwise/depthwise_weights"], "attr": {"padding": {"s": "VkFMSUQ="}, "dilations": {"list": {"i": ["1", "1", "1", "1"]}}, "data_format": {"s": "TkhXQw=="}, "explicit_paddings": {"list": {}}, "T": {"type": "DT_FLOAT"}, "strides": {"list": {"i": ["1", "1", "1", "1"]}}}}, {"name": "MobilenetV2/expanded_conv_12/depthwise/depthwise/BatchToSpaceND", "op": "BatchToSpaceND", "input": ["MobilenetV2/expanded_conv_12/depthwise/depthwise", "MobilenetV2/expanded_conv_12/depthwise/depthwise/BatchToSpaceND/block_shape", "MobilenetV2/expanded_conv_12/depthwise/depthwise/BatchToSpaceND/crops"], "attr": {"Tblock_shape": {"type": "DT_INT32"}, "Tcrops": {"type": "DT_INT32"}, "T": {"type": "DT_FLOAT"}}}, {"name": "MobilenetV2/expanded_conv_12/depthwise/BatchNorm/FusedBatchNorm/Mul", "op": "Mul", "input": ["MobilenetV2/expanded_conv_12/depthwise/depthwise/BatchToSpaceND", "MobilenetV2/expanded_conv_12/depthwise/BatchNorm/FusedBatchNorm/Scaled"], "attr": {"T": {"type": "DT_FLOAT"}}}, {"name": "MobilenetV2/expanded_conv_12/depthwise/BatchNorm/FusedBatchNorm", "op": "Add", "input": ["MobilenetV2/expanded_conv_12/depthwise/BatchNorm/FusedBatchNorm/Mul", "MobilenetV2/expanded_conv_12/depthwise/BatchNorm/FusedBatchNorm/Offset"], "attr": {"T": {"type": "DT_FLOAT"}}}, {"name": "MobilenetV2/expanded_conv_12/depthwise/Relu6", "op": "Relu6", "input": ["MobilenetV2/expanded_conv_12/depthwise/BatchNorm/FusedBatchNorm"], "attr": {"T": {"type": "DT_FLOAT"}}}, {"name": "MobilenetV2/expanded_conv_12/project/BatchNorm/FusedBatchNorm", "op": "_FusedConv2D", "input": ["MobilenetV2/expanded_conv_12/depthwise/Relu6", "MobilenetV2/expanded_conv_12/project/Conv2D_weights", "MobilenetV2/expanded_conv_12/project/Conv2D_bn_offset"], "device": "/device:CPU:0", "attr": {"data_format": {"s": "TkhXQw=="}, "padding": {"s": "U0FNRQ=="}, "fused_ops": {"list": {"s": ["Qmlhc0FkZA=="]}}, "num_args": {"i": "1"}, "dilations": {"list": {"i": ["1", "1", "1", "1"]}}, "T": {"type": "DT_FLOAT"}, "strides": {"list": {"i": ["1", "1", "1", "1"]}}, "epsilon": {"f": 0.0}, "explicit_paddings": {"list": {}}, "use_cudnn_on_gpu": {"b": true}}}, {"name": "MobilenetV2/expanded_conv_12/add", "op": "Add", "input": ["MobilenetV2/expanded_conv_12/project/BatchNorm/FusedBatchNorm", "MobilenetV2/expanded_conv_11/add"], "attr": {"T": {"type": "DT_FLOAT"}}}, {"name": "MobilenetV2/expanded_conv_13/expand/Relu6", "op": "_FusedConv2D", "input": ["MobilenetV2/expanded_conv_12/add", "MobilenetV2/expanded_conv_13/expand/Conv2D_weights", "MobilenetV2/expanded_conv_13/expand/Conv2D_bn_offset"], "device": "/device:CPU:0", "attr": {"explicit_paddings": {"list": {}}, "strides": {"list": {"i": ["1", "1", "1", "1"]}}, "fused_ops": {"list": {"s": ["Qmlhc0FkZA==", "UmVsdTY="]}}, "dilations": {"list": {"i": ["1", "1", "1", "1"]}}, "padding": {"s": "U0FNRQ=="}, "use_cudnn_on_gpu": {"b": true}, "data_format": {"s": "TkhXQw=="}, "epsilon": {"f": 0.0}, "num_args": {"i": "1"}, "T": {"type": "DT_FLOAT"}}}, {"name": "MobilenetV2/expanded_conv_13/depthwise/depthwise/SpaceToBatchND", "op": "SpaceToBatchND", "input": ["MobilenetV2/expanded_conv_13/expand/Relu6", "MobilenetV2/expanded_conv_13/depthwise/depthwise/SpaceToBatchND/block_shape", "MobilenetV2/expanded_conv_13/depthwise/depthwise/SpaceToBatchND/paddings"], "attr": {"T": {"type": "DT_FLOAT"}, "Tblock_shape": {"type": "DT_INT32"}, "Tpaddings": {"type": "DT_INT32"}}}, {"name": "MobilenetV2/expanded_conv_13/depthwise/depthwise", "op": "DepthwiseConv2dNative", "input": ["MobilenetV2/expanded_conv_13/depthwise/depthwise/SpaceToBatchND", "MobilenetV2/expanded_conv_13/depthwise/depthwise_weights"], "attr": {"dilations": {"list": {"i": ["1", "1", "1", "1"]}}, "padding": {"s": "VkFMSUQ="}, "strides": {"list": {"i": ["1", "1", "1", "1"]}}, "explicit_paddings": {"list": {}}, "data_format": {"s": "TkhXQw=="}, "T": {"type": "DT_FLOAT"}}}, {"name": "MobilenetV2/expanded_conv_13/depthwise/depthwise/BatchToSpaceND", "op": "BatchToSpaceND", "input": ["MobilenetV2/expanded_conv_13/depthwise/depthwise", "MobilenetV2/expanded_conv_13/depthwise/depthwise/BatchToSpaceND/block_shape", "MobilenetV2/expanded_conv_13/depthwise/depthwise/BatchToSpaceND/crops"], "attr": {"T": {"type": "DT_FLOAT"}, "Tblock_shape": {"type": "DT_INT32"}, "Tcrops": {"type": "DT_INT32"}}}, {"name": "MobilenetV2/expanded_conv_13/depthwise/BatchNorm/FusedBatchNorm/Mul", "op": "Mul", "input": ["MobilenetV2/expanded_conv_13/depthwise/depthwise/BatchToSpaceND", "MobilenetV2/expanded_conv_13/depthwise/BatchNorm/FusedBatchNorm/Scaled"], "attr": {"T": {"type": "DT_FLOAT"}}}, {"name": "MobilenetV2/expanded_conv_13/depthwise/BatchNorm/FusedBatchNorm", "op": "Add", "input": ["MobilenetV2/expanded_conv_13/depthwise/BatchNorm/FusedBatchNorm/Mul", "MobilenetV2/expanded_conv_13/depthwise/BatchNorm/FusedBatchNorm/Offset"], "attr": {"T": {"type": "DT_FLOAT"}}}, {"name": "MobilenetV2/expanded_conv_13/depthwise/Relu6", "op": "Relu6", "input": ["MobilenetV2/expanded_conv_13/depthwise/BatchNorm/FusedBatchNorm"], "attr": {"T": {"type": "DT_FLOAT"}}}, {"name": "MobilenetV2/expanded_conv_13/project/BatchNorm/FusedBatchNorm", "op": "_FusedConv2D", "input": ["MobilenetV2/expanded_conv_13/depthwise/Relu6", "MobilenetV2/expanded_conv_13/project/Conv2D_weights", "MobilenetV2/expanded_conv_13/project/Conv2D_bn_offset"], "device": "/device:CPU:0", "attr": {"padding": {"s": "U0FNRQ=="}, "T": {"type": "DT_FLOAT"}, "use_cudnn_on_gpu": {"b": true}, "dilations": {"list": {"i": ["1", "1", "1", "1"]}}, "data_format": {"s": "TkhXQw=="}, "num_args": {"i": "1"}, "explicit_paddings": {"list": {}}, "strides": {"list": {"i": ["1", "1", "1", "1"]}}, "fused_ops": {"list": {"s": ["Qmlhc0FkZA=="]}}, "epsilon": {"f": 0.0}}}, {"name": "MobilenetV2/expanded_conv_14/expand/Relu6", "op": "_FusedConv2D", "input": ["MobilenetV2/expanded_conv_13/project/BatchNorm/FusedBatchNorm", "MobilenetV2/expanded_conv_14/expand/Conv2D_weights", "MobilenetV2/expanded_conv_14/expand/Conv2D_bn_offset"], "device": "/device:CPU:0", "attr": {"num_args": {"i": "1"}, "dilations": {"list": {"i": ["1", "1", "1", "1"]}}, "padding": {"s": "U0FNRQ=="}, "epsilon": {"f": 0.0}, "explicit_paddings": {"list": {}}, "use_cudnn_on_gpu": {"b": true}, "T": {"type": "DT_FLOAT"}, "data_format": {"s": "TkhXQw=="}, "strides": {"list": {"i": ["1", "1", "1", "1"]}}, "fused_ops": {"list": {"s": ["Qmlhc0FkZA==", "UmVsdTY="]}}}}, {"name": "MobilenetV2/expanded_conv_14/depthwise/depthwise/SpaceToBatchND", "op": "SpaceToBatchND", "input": ["MobilenetV2/expanded_conv_14/expand/Relu6", "MobilenetV2/expanded_conv_14/depthwise/depthwise/SpaceToBatchND/block_shape", "MobilenetV2/expanded_conv_14/depthwise/depthwise/SpaceToBatchND/paddings"], "attr": {"T": {"type": "DT_FLOAT"}, "Tblock_shape": {"type": "DT_INT32"}, "Tpaddings": {"type": "DT_INT32"}}}, {"name": "MobilenetV2/expanded_conv_14/depthwise/depthwise", "op": "DepthwiseConv2dNative", "input": ["MobilenetV2/expanded_conv_14/depthwise/depthwise/SpaceToBatchND", "MobilenetV2/expanded_conv_14/depthwise/depthwise_weights"], "attr": {"strides": {"list": {"i": ["1", "1", "1", "1"]}}, "T": {"type": "DT_FLOAT"}, "dilations": {"list": {"i": ["1", "1", "1", "1"]}}, "explicit_paddings": {"list": {}}, "data_format": {"s": "TkhXQw=="}, "padding": {"s": "VkFMSUQ="}}}, {"name": "MobilenetV2/expanded_conv_14/depthwise/depthwise/BatchToSpaceND", "op": "BatchToSpaceND", "input": ["MobilenetV2/expanded_conv_14/depthwise/depthwise", "MobilenetV2/expanded_conv_14/depthwise/depthwise/BatchToSpaceND/block_shape", "MobilenetV2/expanded_conv_14/depthwise/depthwise/BatchToSpaceND/crops"], "attr": {"Tblock_shape": {"type": "DT_INT32"}, "Tcrops": {"type": "DT_INT32"}, "T": {"type": "DT_FLOAT"}}}, {"name": "MobilenetV2/expanded_conv_14/depthwise/BatchNorm/FusedBatchNorm/Mul", "op": "Mul", "input": ["MobilenetV2/expanded_conv_14/depthwise/depthwise/BatchToSpaceND", "MobilenetV2/expanded_conv_14/depthwise/BatchNorm/FusedBatchNorm/Scaled"], "attr": {"T": {"type": "DT_FLOAT"}}}, {"name": "MobilenetV2/expanded_conv_14/depthwise/BatchNorm/FusedBatchNorm", "op": "Add", "input": ["MobilenetV2/expanded_conv_14/depthwise/BatchNorm/FusedBatchNorm/Mul", "MobilenetV2/expanded_conv_14/depthwise/BatchNorm/FusedBatchNorm/Offset"], "attr": {"T": {"type": "DT_FLOAT"}}}, {"name": "MobilenetV2/expanded_conv_14/depthwise/Relu6", "op": "Relu6", "input": ["MobilenetV2/expanded_conv_14/depthwise/BatchNorm/FusedBatchNorm"], "attr": {"T": {"type": "DT_FLOAT"}}}, {"name": "MobilenetV2/expanded_conv_14/project/BatchNorm/FusedBatchNorm", "op": "_FusedConv2D", "input": ["MobilenetV2/expanded_conv_14/depthwise/Relu6", "MobilenetV2/expanded_conv_14/project/Conv2D_weights", "MobilenetV2/expanded_conv_14/project/Conv2D_bn_offset"], "device": "/device:CPU:0", "attr": {"strides": {"list": {"i": ["1", "1", "1", "1"]}}, "epsilon": {"f": 0.0}, "explicit_paddings": {"list": {}}, "use_cudnn_on_gpu": {"b": true}, "data_format": {"s": "TkhXQw=="}, "fused_ops": {"list": {"s": ["Qmlhc0FkZA=="]}}, "padding": {"s": "U0FNRQ=="}, "num_args": {"i": "1"}, "dilations": {"list": {"i": ["1", "1", "1", "1"]}}, "T": {"type": "DT_FLOAT"}}}, {"name": "MobilenetV2/expanded_conv_14/add", "op": "Add", "input": ["MobilenetV2/expanded_conv_14/project/BatchNorm/FusedBatchNorm", "MobilenetV2/expanded_conv_13/project/BatchNorm/FusedBatchNorm"], "attr": {"T": {"type": "DT_FLOAT"}}}, {"name": "MobilenetV2/expanded_conv_15/expand/Relu6", "op": "_FusedConv2D", "input": ["MobilenetV2/expanded_conv_14/add", "MobilenetV2/expanded_conv_15/expand/Conv2D_weights", "MobilenetV2/expanded_conv_15/expand/Conv2D_bn_offset"], "device": "/device:CPU:0", "attr": {"dilations": {"list": {"i": ["1", "1", "1", "1"]}}, "T": {"type": "DT_FLOAT"}, "use_cudnn_on_gpu": {"b": true}, "data_format": {"s": "TkhXQw=="}, "fused_ops": {"list": {"s": ["Qmlhc0FkZA==", "UmVsdTY="]}}, "epsilon": {"f": 0.0}, "num_args": {"i": "1"}, "explicit_paddings": {"list": {}}, "strides": {"list": {"i": ["1", "1", "1", "1"]}}, "padding": {"s": "U0FNRQ=="}}}, {"name": "MobilenetV2/expanded_conv_15/depthwise/depthwise/SpaceToBatchND", "op": "SpaceToBatchND", "input": ["MobilenetV2/expanded_conv_15/expand/Relu6", "MobilenetV2/expanded_conv_15/depthwise/depthwise/SpaceToBatchND/block_shape", "MobilenetV2/expanded_conv_15/depthwise/depthwise/SpaceToBatchND/paddings"], "attr": {"Tblock_shape": {"type": "DT_INT32"}, "Tpaddings": {"type": "DT_INT32"}, "T": {"type": "DT_FLOAT"}}}, {"name": "MobilenetV2/expanded_conv_15/depthwise/depthwise", "op": "DepthwiseConv2dNative", "input": ["MobilenetV2/expanded_conv_15/depthwise/depthwise/SpaceToBatchND", "MobilenetV2/expanded_conv_15/depthwise/depthwise_weights"], "attr": {"strides": {"list": {"i": ["1", "1", "1", "1"]}}, "explicit_paddings": {"list": {}}, "T": {"type": "DT_FLOAT"}, "padding": {"s": "VkFMSUQ="}, "data_format": {"s": "TkhXQw=="}, "dilations": {"list": {"i": ["1", "1", "1", "1"]}}}}, {"name": "MobilenetV2/expanded_conv_15/depthwise/depthwise/BatchToSpaceND", "op": "BatchToSpaceND", "input": ["MobilenetV2/expanded_conv_15/depthwise/depthwise", "MobilenetV2/expanded_conv_15/depthwise/depthwise/BatchToSpaceND/block_shape", "MobilenetV2/expanded_conv_15/depthwise/depthwise/BatchToSpaceND/crops"], "attr": {"T": {"type": "DT_FLOAT"}, "Tcrops": {"type": "DT_INT32"}, "Tblock_shape": {"type": "DT_INT32"}}}, {"name": "MobilenetV2/expanded_conv_15/depthwise/BatchNorm/FusedBatchNorm/Mul", "op": "Mul", "input": ["MobilenetV2/expanded_conv_15/depthwise/depthwise/BatchToSpaceND", "MobilenetV2/expanded_conv_15/depthwise/BatchNorm/FusedBatchNorm/Scaled"], "attr": {"T": {"type": "DT_FLOAT"}}}, {"name": "MobilenetV2/expanded_conv_15/depthwise/BatchNorm/FusedBatchNorm", "op": "Add", "input": ["MobilenetV2/expanded_conv_15/depthwise/BatchNorm/FusedBatchNorm/Mul", "MobilenetV2/expanded_conv_15/depthwise/BatchNorm/FusedBatchNorm/Offset"], "attr": {"T": {"type": "DT_FLOAT"}}}, {"name": "MobilenetV2/expanded_conv_15/depthwise/Relu6", "op": "Relu6", "input": ["MobilenetV2/expanded_conv_15/depthwise/BatchNorm/FusedBatchNorm"], "attr": {"T": {"type": "DT_FLOAT"}}}, {"name": "MobilenetV2/expanded_conv_15/project/BatchNorm/FusedBatchNorm", "op": "_FusedConv2D", "input": ["MobilenetV2/expanded_conv_15/depthwise/Relu6", "MobilenetV2/expanded_conv_15/project/Conv2D_weights", "MobilenetV2/expanded_conv_15/project/Conv2D_bn_offset"], "device": "/device:CPU:0", "attr": {"num_args": {"i": "1"}, "explicit_paddings": {"list": {}}, "epsilon": {"f": 0.0}, "padding": {"s": "U0FNRQ=="}, "T": {"type": "DT_FLOAT"}, "fused_ops": {"list": {"s": ["Qmlhc0FkZA=="]}}, "strides": {"list": {"i": ["1", "1", "1", "1"]}}, "use_cudnn_on_gpu": {"b": true}, "dilations": {"list": {"i": ["1", "1", "1", "1"]}}, "data_format": {"s": "TkhXQw=="}}}, {"name": "MobilenetV2/expanded_conv_15/add", "op": "Add", "input": ["MobilenetV2/expanded_conv_15/project/BatchNorm/FusedBatchNorm", "MobilenetV2/expanded_conv_14/add"], "attr": {"T": {"type": "DT_FLOAT"}}}, {"name": "MobilenetV2/expanded_conv_16/expand/Relu6", "op": "_FusedConv2D", "input": ["MobilenetV2/expanded_conv_15/add", "MobilenetV2/expanded_conv_16/expand/Conv2D_weights", "MobilenetV2/expanded_conv_16/expand/Conv2D_bn_offset"], "device": "/device:CPU:0", "attr": {"epsilon": {"f": 0.0}, "strides": {"list": {"i": ["1", "1", "1", "1"]}}, "use_cudnn_on_gpu": {"b": true}, "dilations": {"list": {"i": ["1", "1", "1", "1"]}}, "data_format": {"s": "TkhXQw=="}, "num_args": {"i": "1"}, "padding": {"s": "U0FNRQ=="}, "T": {"type": "DT_FLOAT"}, "explicit_paddings": {"list": {}}, "fused_ops": {"list": {"s": ["Qmlhc0FkZA==", "UmVsdTY="]}}}}, {"name": "MobilenetV2/expanded_conv_16/depthwise/depthwise/SpaceToBatchND", "op": "SpaceToBatchND", "input": ["MobilenetV2/expanded_conv_16/expand/Relu6", "MobilenetV2/expanded_conv_16/depthwise/depthwise/SpaceToBatchND/block_shape", "MobilenetV2/expanded_conv_16/depthwise/depthwise/SpaceToBatchND/paddings"], "attr": {"Tpaddings": {"type": "DT_INT32"}, "T": {"type": "DT_FLOAT"}, "Tblock_shape": {"type": "DT_INT32"}}}, {"name": "MobilenetV2/expanded_conv_16/depthwise/depthwise", "op": "DepthwiseConv2dNative", "input": ["MobilenetV2/expanded_conv_16/depthwise/depthwise/SpaceToBatchND", "MobilenetV2/expanded_conv_16/depthwise/depthwise_weights"], "attr": {"explicit_paddings": {"list": {}}, "T": {"type": "DT_FLOAT"}, "data_format": {"s": "TkhXQw=="}, "padding": {"s": "VkFMSUQ="}, "dilations": {"list": {"i": ["1", "1", "1", "1"]}}, "strides": {"list": {"i": ["1", "1", "1", "1"]}}}}, {"name": "MobilenetV2/expanded_conv_16/depthwise/depthwise/BatchToSpaceND", "op": "BatchToSpaceND", "input": ["MobilenetV2/expanded_conv_16/depthwise/depthwise", "MobilenetV2/expanded_conv_16/depthwise/depthwise/BatchToSpaceND/block_shape", "MobilenetV2/expanded_conv_16/depthwise/depthwise/BatchToSpaceND/crops"], "attr": {"Tblock_shape": {"type": "DT_INT32"}, "T": {"type": "DT_FLOAT"}, "Tcrops": {"type": "DT_INT32"}}}, {"name": "MobilenetV2/expanded_conv_16/depthwise/BatchNorm/FusedBatchNorm/Mul", "op": "Mul", "input": ["MobilenetV2/expanded_conv_16/depthwise/depthwise/BatchToSpaceND", "MobilenetV2/expanded_conv_16/depthwise/BatchNorm/FusedBatchNorm/Scaled"], "attr": {"T": {"type": "DT_FLOAT"}}}, {"name": "MobilenetV2/expanded_conv_16/depthwise/BatchNorm/FusedBatchNorm", "op": "Add", "input": ["MobilenetV2/expanded_conv_16/depthwise/BatchNorm/FusedBatchNorm/Mul", "MobilenetV2/expanded_conv_16/depthwise/BatchNorm/FusedBatchNorm/Offset"], "attr": {"T": {"type": "DT_FLOAT"}}}, {"name": "MobilenetV2/expanded_conv_16/depthwise/Relu6", "op": "Relu6", "input": ["MobilenetV2/expanded_conv_16/depthwise/BatchNorm/FusedBatchNorm"], "attr": {"T": {"type": "DT_FLOAT"}}}, {"name": "MobilenetV2/expanded_conv_16/project/BatchNorm/FusedBatchNorm", "op": "_FusedConv2D", "input": ["MobilenetV2/expanded_conv_16/depthwise/Relu6", "MobilenetV2/expanded_conv_16/project/Conv2D_weights", "MobilenetV2/expanded_conv_16/project/Conv2D_bn_offset"], "device": "/device:CPU:0", "attr": {"epsilon": {"f": 0.0}, "explicit_paddings": {"list": {}}, "use_cudnn_on_gpu": {"b": true}, "T": {"type": "DT_FLOAT"}, "strides": {"list": {"i": ["1", "1", "1", "1"]}}, "data_format": {"s": "TkhXQw=="}, "fused_ops": {"list": {"s": ["Qmlhc0FkZA=="]}}, "num_args": {"i": "1"}, "dilations": {"list": {"i": ["1", "1", "1", "1"]}}, "padding": {"s": "U0FNRQ=="}}}, {"name": "AvgPool2D/AvgPool", "op": "AvgPool", "input": ["MobilenetV2/expanded_conv_16/project/BatchNorm/FusedBatchNorm"], "attr": {"padding": {"s": "VkFMSUQ="}, "data_format": {"s": "TkhXQw=="}, "strides": {"list": {"i": ["1", "1", "1", "1"]}}, "T": {"type": "DT_FLOAT"}, "ksize": {"list": {"i": ["1", "65", "65", "1"]}}}}, {"name": "aspp0/Relu", "op": "_FusedConv2D", "input": ["MobilenetV2/expanded_conv_16/project/BatchNorm/FusedBatchNorm", "aspp0/Conv2D_weights", "aspp0/Conv2D_bn_offset"], "device": "/device:CPU:0", "attr": {"use_cudnn_on_gpu": {"b": true}, "dilations": {"list": {"i": ["1", "1", "1", "1"]}}, "padding": {"s": "U0FNRQ=="}, "data_format": {"s": "TkhXQw=="}, "num_args": {"i": "1"}, "T": {"type": "DT_FLOAT"}, "explicit_paddings": {"list": {}}, "strides": {"list": {"i": ["1", "1", "1", "1"]}}, "epsilon": {"f": 0.0}, "fused_ops": {"list": {"s": ["Qmlhc0FkZA==", "UmVsdQ=="]}}}}, {"name": "image_pooling/Relu", "op": "_FusedConv2D", "input": ["AvgPool2D/AvgPool", "image_pooling/Conv2D_weights", "image_pooling/Conv2D_bn_offset"], "device": "/device:CPU:0", "attr": {"data_format": {"s": "TkhXQw=="}, "explicit_paddings": {"list": {}}, "T": {"type": "DT_FLOAT"}, "use_cudnn_on_gpu": {"b": true}, "padding": {"s": "U0FNRQ=="}, "dilations": {"list": {"i": ["1", "1", "1", "1"]}}, "fused_ops": {"list": {"s": ["Qmlhc0FkZA==", "UmVsdQ=="]}}, "num_args": {"i": "1"}, "strides": {"list": {"i": ["1", "1", "1", "1"]}}, "epsilon": {"f": 0.0}}}, {"name": "ResizeBilinear", "op": "ResizeBilinear", "input": ["image_pooling/Relu", "ResizeBilinear/size"], "attr": {"T": {"type": "DT_FLOAT"}, "align_corners": {"b": true}, "half_pixel_centers": {"b": false}}}, {"name": "concat", "op": "ConcatV2", "input": ["ResizeBilinear", "aspp0/Relu", "concat/axis"], "attr": {"T": {"type": "DT_FLOAT"}, "Tidx": {"type": "DT_INT32"}, "N": {"i": "2"}}}, {"name": "concat_projection/Relu", "op": "_FusedConv2D", "input": ["concat", "concat_projection/Conv2D_weights", "concat_projection/Conv2D_bn_offset"], "device": "/device:CPU:0", "attr": {"fused_ops": {"list": {"s": ["Qmlhc0FkZA==", "UmVsdQ=="]}}, "T": {"type": "DT_FLOAT"}, "dilations": {"list": {"i": ["1", "1", "1", "1"]}}, "data_format": {"s": "TkhXQw=="}, "strides": {"list": {"i": ["1", "1", "1", "1"]}}, "use_cudnn_on_gpu": {"b": true}, "epsilon": {"f": 0.0}, "num_args": {"i": "1"}, "explicit_paddings": {"list": {}}, "padding": {"s": "U0FNRQ=="}}}, {"name": "logits/semantic/BiasAdd", "op": "_FusedConv2D", "input": ["concat_projection/Relu", "logits/semantic/weights", "logits/semantic/biases"], "device": "/device:CPU:0", "attr": {"num_args": {"i": "1"}, "T": {"type": "DT_FLOAT"}, "strides": {"list": {"i": ["1", "1", "1", "1"]}}, "dilations": {"list": {"i": ["1", "1", "1", "1"]}}, "padding": {"s": "U0FNRQ=="}, "use_cudnn_on_gpu": {"b": true}, "data_format": {"s": "TkhXQw=="}, "epsilon": {"f": 0.0}, "fused_ops": {"list": {"s": ["Qmlhc0FkZA=="]}}, "explicit_paddings": {"list": {}}}}, {"name": "ResizeBilinear_1", "op": "ResizeBilinear", "input": ["logits/semantic/BiasAdd", "ResizeBilinear_1/size"], "attr": {"align_corners": {"b": true}, "half_pixel_centers": {"b": false}, "T": {"type": "DT_FLOAT"}}}, {"name": "ResizeBilinear_2", "op": "ResizeBilinear", "input": ["ResizeBilinear_1", "strided_slice_6"], "attr": {"half_pixel_centers": {"b": false}, "align_corners": {"b": true}, "T": {"type": "DT_FLOAT"}}}], "library": {}, "versions": {}}, "weightsManifest": [{"paths": ["group1-shard1of1.bin"], "weights": [{"name": "ResizeBilinear/size", "shape": [2], "dtype": "int32"}, {"name": "MobilenetV2/expanded_conv_15/depthwise/depthwise/SpaceToBatchND/block_shape", "shape": [2], "dtype": "int32"}, {"name": "MobilenetV2/expanded_conv_15/depthwise/depthwise/SpaceToBatchND/paddings", "shape": [2, 2], "dtype": "int32"}, {"name": "MobilenetV2/expanded_conv_15/depthwise/depthwise_weights", "shape": [3, 3, 480, 1], "dtype": "float32"}, {"name": "MobilenetV2/expanded_conv_15/depthwise/depthwise/BatchToSpaceND/block_shape", "shape": [2], "dtype": "int32"}, {"name": "MobilenetV2/expanded_conv_15/depthwise/depthwise/BatchToSpaceND/crops", "shape": [2, 2], "dtype": "int32"}, {"name": "MobilenetV2/expanded_conv_14/depthwise/depthwise/SpaceToBatchND/block_shape", "shape": [2], "dtype": "int32"}, {"name": "MobilenetV2/expanded_conv_14/depthwise/depthwise/SpaceToBatchND/paddings", "shape": [2, 2], "dtype": "int32"}, {"name": "MobilenetV2/expanded_conv_14/depthwise/depthwise_weights", "shape": [3, 3, 480, 1], "dtype": "float32"}, {"name": "MobilenetV2/expanded_conv_14/depthwise/depthwise/BatchToSpaceND/block_shape", "shape": [2], "dtype": "int32"}, {"name": "MobilenetV2/expanded_conv_14/depthwise/depthwise/BatchToSpaceND/crops", "shape": [2, 2], "dtype": "int32"}, {"name": "MobilenetV2/expanded_conv_12/depthwise/depthwise/SpaceToBatchND/block_shape", "shape": [2], "dtype": "int32"}, {"name": "MobilenetV2/expanded_conv_12/depthwise/depthwise/SpaceToBatchND/paddings", "shape": [2, 2], "dtype": "int32"}, {"name": "MobilenetV2/expanded_conv_12/depthwise/depthwise_weights", "shape": [3, 3, 288, 1], "dtype": "float32"}, {"name": "MobilenetV2/expanded_conv_12/depthwise/depthwise/BatchToSpaceND/block_shape", "shape": [2], "dtype": "int32"}, {"name": "MobilenetV2/expanded_conv_12/depthwise/depthwise/BatchToSpaceND/crops", "shape": [2, 2], "dtype": "int32"}, {"name": "MobilenetV2/expanded_conv_11/depthwise/depthwise/SpaceToBatchND/block_shape", "shape": [2], "dtype": "int32"}, {"name": "MobilenetV2/expanded_conv_11/depthwise/depthwise/SpaceToBatchND/paddings", "shape": [2, 2], "dtype": "int32"}, {"name": "MobilenetV2/expanded_conv_11/depthwise/depthwise_weights", "shape": [3, 3, 288, 1], "dtype": "float32"}, {"name": "MobilenetV2/expanded_conv_11/depthwise/depthwise/BatchToSpaceND/block_shape", "shape": [2], "dtype": "int32"}, {"name": "MobilenetV2/expanded_conv_11/depthwise/depthwise/BatchToSpaceND/crops", "shape": [2, 2], "dtype": "int32"}, {"name": "MobilenetV2/expanded_conv_9/depthwise/depthwise/SpaceToBatchND/block_shape", "shape": [2], "dtype": "int32"}, {"name": "MobilenetV2/expanded_conv_9/depthwise/depthwise/SpaceToBatchND/paddings", "shape": [2, 2], "dtype": "int32"}, {"name": "MobilenetV2/expanded_conv_9/depthwise/depthwise_weights", "shape": [3, 3, 192, 1], "dtype": "float32"}, {"name": "MobilenetV2/expanded_conv_9/depthwise/depthwise/BatchToSpaceND/block_shape", "shape": [2], "dtype": "int32"}, {"name": "MobilenetV2/expanded_conv_9/depthwise/depthwise/BatchToSpaceND/crops", "shape": [2, 2], "dtype": "int32"}, {"name": "MobilenetV2/expanded_conv_8/depthwise/depthwise/SpaceToBatchND/block_shape", "shape": [2], "dtype": "int32"}, {"name": "MobilenetV2/expanded_conv_8/depthwise/depthwise/SpaceToBatchND/paddings", "shape": [2, 2], "dtype": "int32"}, {"name": "MobilenetV2/expanded_conv_8/depthwise/depthwise_weights", "shape": [3, 3, 192, 1], "dtype": "float32"}, {"name": "MobilenetV2/expanded_conv_8/depthwise/depthwise/BatchToSpaceND/block_shape", "shape": [2], "dtype": "int32"}, {"name": "MobilenetV2/expanded_conv_8/depthwise/depthwise/BatchToSpaceND/crops", "shape": [2, 2], "dtype": "int32"}, {"name": "MobilenetV2/expanded_conv_7/depthwise/depthwise/SpaceToBatchND/block_shape", "shape": [2], "dtype": "int32"}, {"name": "MobilenetV2/expanded_conv_7/depthwise/depthwise/SpaceToBatchND/paddings", "shape": [2, 2], "dtype": "int32"}, {"name": "MobilenetV2/expanded_conv_7/depthwise/depthwise_weights", "shape": [3, 3, 192, 1], "dtype": "float32"}, {"name": "MobilenetV2/expanded_conv_7/depthwise/depthwise/BatchToSpaceND/block_shape", "shape": [2], "dtype": "int32"}, {"name": "MobilenetV2/expanded_conv_7/depthwise/depthwise/BatchToSpaceND/crops", "shape": [2, 2], "dtype": "int32"}, {"name": "mul/x", "shape": [], "dtype": "float32"}, {"name": "stack/0", "shape": [], "dtype": "int32"}, {"name": "sub/x", "shape": [], "dtype": "int32"}, {"name": "strided_slice_1/stack", "shape": [1], "dtype": "int32"}, {"name": "strided_slice_1/stack_1", "shape": [1], "dtype": "int32"}, {"name": "strided_slice_1/stack_2", "shape": [1], "dtype": "int32"}, {"name": "Maximum/y", "shape": [], "dtype": "int32"}, {"name": "strided_slice_3/stack", "shape": [1], "dtype": "int32"}, {"name": "strided_slice_3/stack_1", "shape": [1], "dtype": "int32"}, {"name": "strided_slice_3/stack_2", "shape": [1], "dtype": "int32"}, {"name": "stack_1/0", "shape": [], "dtype": "int32"}, {"name": "sub_1/x", "shape": [], "dtype": "int32"}, {"name": "strided_slice_2/stack", "shape": [1], "dtype": "int32"}, {"name": "strided_slice_2/stack_1", "shape": [1], "dtype": "int32"}, {"name": "strided_slice_2/stack_2", "shape": [1], "dtype": "int32"}, {"name": "Maximum_1/y", "shape": [], "dtype": "int32"}, {"name": "strided_slice_4/stack", "shape": [1], "dtype": "int32"}, {"name": "strided_slice_4/stack_1", "shape": [1], "dtype": "int32"}, {"name": "strided_slice_4/stack_2", "shape": [1], "dtype": "int32"}, {"name": "stack_2", "shape": [2], "dtype": "int32"}, {"name": "Reshape", "shape": [1, 1, 3], "dtype": "float32"}, {"name": "ExpandDims/dim", "shape": [], "dtype": "int32"}, {"name": "sub_7/y", "shape": [], "dtype": "float32"}, {"name": "MobilenetV2/expanded_conv_10/depthwise/depthwise/SpaceToBatchND/block_shape", "shape": [2], "dtype": "int32"}, {"name": "MobilenetV2/expanded_conv_10/depthwise/depthwise/SpaceToBatchND/paddings", "shape": [2, 2], "dtype": "int32"}, {"name": "MobilenetV2/expanded_conv_10/depthwise/depthwise_weights", "shape": [3, 3, 192, 1], "dtype": "float32"}, {"name": "MobilenetV2/expanded_conv_10/depthwise/depthwise/BatchToSpaceND/block_shape", "shape": [2], "dtype": "int32"}, {"name": "MobilenetV2/expanded_conv_10/depthwise/depthwise/BatchToSpaceND/crops", "shape": [2, 2], "dtype": "int32"}, {"name": "MobilenetV2/expanded_conv_13/depthwise/depthwise/SpaceToBatchND/block_shape", "shape": [2], "dtype": "int32"}, {"name": "MobilenetV2/expanded_conv_13/depthwise/depthwise/SpaceToBatchND/paddings", "shape": [2, 2], "dtype": "int32"}, {"name": "MobilenetV2/expanded_conv_13/depthwise/depthwise_weights", "shape": [3, 3, 288, 1], "dtype": "float32"}, {"name": "MobilenetV2/expanded_conv_13/depthwise/depthwise/BatchToSpaceND/block_shape", "shape": [2], "dtype": "int32"}, {"name": "MobilenetV2/expanded_conv_13/depthwise/depthwise/BatchToSpaceND/crops", "shape": [2, 2], "dtype": "int32"}, {"name": "MobilenetV2/expanded_conv_16/depthwise/depthwise/SpaceToBatchND/block_shape", "shape": [2], "dtype": "int32"}, {"name": "MobilenetV2/expanded_conv_16/depthwise/depthwise/SpaceToBatchND/paddings", "shape": [2, 2], "dtype": "int32"}, {"name": "MobilenetV2/expanded_conv_16/depthwise/depthwise_weights", "shape": [3, 3, 480, 1], "dtype": "float32"}, {"name": "MobilenetV2/expanded_conv_16/depthwise/depthwise/BatchToSpaceND/block_shape", "shape": [2], "dtype": "int32"}, {"name": "MobilenetV2/expanded_conv_16/depthwise/depthwise/BatchToSpaceND/crops", "shape": [2, 2], "dtype": "int32"}, {"name": "concat/axis", "shape": [], "dtype": "int32"}, {"name": "logits/semantic/weights", "shape": [1, 1, 256, 21], "dtype": "float32"}, {"name": "logits/semantic/biases", "shape": [21], "dtype": "float32"}, {"name": "ResizeBilinear_1/size", "shape": [2], "dtype": "int32"}, {"name": "strided_slice_6", "shape": [2], "dtype": "int32"}, {"name": "MobilenetV2/Conv/Conv2D_weights", "shape": [3, 3, 3, 16], "dtype": "float32"}, {"name": "MobilenetV2/Conv/Conv2D_bn_offset", "shape": [16], "dtype": "float32"}, {"name": "MobilenetV2/expanded_conv_15/depthwise/BatchNorm/FusedBatchNorm/Offset", "shape": [480], "dtype": "float32"}, {"name": "MobilenetV2/expanded_conv/depthwise/depthwise_weights", "shape": [3, 3, 16, 1], "dtype": "float32"}, {"name": "MobilenetV2/expanded_conv/depthwise/depthwise_bn_offset", "shape": [16], "dtype": "float32"}, {"name": "MobilenetV2/expanded_conv/project/Conv2D_weights", "shape": [1, 1, 16, 8], "dtype": "float32"}, {"name": "MobilenetV2/expanded_conv/project/Conv2D_bn_offset", "shape": [8], "dtype": "float32"}, {"name": "MobilenetV2/expanded_conv_1/expand/Conv2D_weights", "shape": [1, 1, 8, 48], "dtype": "float32"}, {"name": "MobilenetV2/expanded_conv_1/expand/Conv2D_bn_offset", "shape": [48], "dtype": "float32"}, {"name": "MobilenetV2/expanded_conv_1/depthwise/depthwise_weights", "shape": [3, 3, 48, 1], "dtype": "float32"}, {"name": "MobilenetV2/expanded_conv_1/depthwise/depthwise_bn_offset", "shape": [48], "dtype": "float32"}, {"name": "MobilenetV2/expanded_conv_1/project/Conv2D_weights", "shape": [1, 1, 48, 12], "dtype": "float32"}, {"name": "MobilenetV2/expanded_conv_14/depthwise/BatchNorm/FusedBatchNorm/Scaled", "shape": [480], "dtype": "float32"}, {"name": "MobilenetV2/expanded_conv_1/project/Conv2D_bn_offset", "shape": [12], "dtype": "float32"}, {"name": "MobilenetV2/expanded_conv_2/expand/Conv2D_weights", "shape": [1, 1, 12, 72], "dtype": "float32"}, {"name": "MobilenetV2/expanded_conv_2/expand/Conv2D_bn_offset", "shape": [72], "dtype": "float32"}, {"name": "MobilenetV2/expanded_conv_2/depthwise/depthwise_weights", "shape": [3, 3, 72, 1], "dtype": "float32"}, {"name": "MobilenetV2/expanded_conv_2/depthwise/depthwise_bn_offset", "shape": [72], "dtype": "float32"}, {"name": "MobilenetV2/expanded_conv_2/project/Conv2D_weights", "shape": [1, 1, 72, 12], "dtype": "float32"}, {"name": "MobilenetV2/expanded_conv_14/depthwise/BatchNorm/FusedBatchNorm/Offset", "shape": [480], "dtype": "float32"}, {"name": "MobilenetV2/expanded_conv_2/project/Conv2D_bn_offset", "shape": [12], "dtype": "float32"}, {"name": "MobilenetV2/expanded_conv_3/expand/Conv2D_weights", "shape": [1, 1, 12, 72], "dtype": "float32"}, {"name": "MobilenetV2/expanded_conv_3/expand/Conv2D_bn_offset", "shape": [72], "dtype": "float32"}, {"name": "MobilenetV2/expanded_conv_3/depthwise/depthwise_weights", "shape": [3, 3, 72, 1], "dtype": "float32"}, {"name": "MobilenetV2/expanded_conv_3/depthwise/depthwise_bn_offset", "shape": [72], "dtype": "float32"}, {"name": "MobilenetV2/expanded_conv_3/project/Conv2D_weights", "shape": [1, 1, 72, 16], "dtype": "float32"}, {"name": "MobilenetV2/expanded_conv_3/project/Conv2D_bn_offset", "shape": [16], "dtype": "float32"}, {"name": "MobilenetV2/expanded_conv_4/expand/Conv2D_weights", "shape": [1, 1, 16, 96], "dtype": "float32"}, {"name": "MobilenetV2/expanded_conv_13/depthwise/BatchNorm/FusedBatchNorm/Scaled", "shape": [288], "dtype": "float32"}, {"name": "MobilenetV2/expanded_conv_4/expand/Conv2D_bn_offset", "shape": [96], "dtype": "float32"}, {"name": "MobilenetV2/expanded_conv_4/depthwise/depthwise_weights", "shape": [3, 3, 96, 1], "dtype": "float32"}, {"name": "MobilenetV2/expanded_conv_4/depthwise/depthwise_bn_offset", "shape": [96], "dtype": "float32"}, {"name": "MobilenetV2/expanded_conv_4/project/Conv2D_weights", "shape": [1, 1, 96, 16], "dtype": "float32"}, {"name": "MobilenetV2/expanded_conv_4/project/Conv2D_bn_offset", "shape": [16], "dtype": "float32"}, {"name": "MobilenetV2/expanded_conv_5/expand/Conv2D_weights", "shape": [1, 1, 16, 96], "dtype": "float32"}, {"name": "MobilenetV2/expanded_conv_13/depthwise/BatchNorm/FusedBatchNorm/Offset", "shape": [288], "dtype": "float32"}, {"name": "MobilenetV2/expanded_conv_5/expand/Conv2D_bn_offset", "shape": [96], "dtype": "float32"}, {"name": "MobilenetV2/expanded_conv_5/depthwise/depthwise_weights", "shape": [3, 3, 96, 1], "dtype": "float32"}, {"name": "MobilenetV2/expanded_conv_5/depthwise/depthwise_bn_offset", "shape": [96], "dtype": "float32"}, {"name": "MobilenetV2/expanded_conv_5/project/Conv2D_weights", "shape": [1, 1, 96, 16], "dtype": "float32"}, {"name": "MobilenetV2/expanded_conv_5/project/Conv2D_bn_offset", "shape": [16], "dtype": "float32"}, {"name": "MobilenetV2/expanded_conv_6/expand/Conv2D_weights", "shape": [1, 1, 16, 96], "dtype": "float32"}, {"name": "MobilenetV2/expanded_conv_6/expand/Conv2D_bn_offset", "shape": [96], "dtype": "float32"}, {"name": "MobilenetV2/expanded_conv_12/depthwise/BatchNorm/FusedBatchNorm/Scaled", "shape": [288], "dtype": "float32"}, {"name": "MobilenetV2/expanded_conv_6/depthwise/depthwise_weights", "shape": [3, 3, 96, 1], "dtype": "float32"}, {"name": "MobilenetV2/expanded_conv_6/depthwise/depthwise_bn_offset", "shape": [96], "dtype": "float32"}, {"name": "MobilenetV2/expanded_conv_6/project/Conv2D_weights", "shape": [1, 1, 96, 32], "dtype": "float32"}, {"name": "MobilenetV2/expanded_conv_6/project/Conv2D_bn_offset", "shape": [32], "dtype": "float32"}, {"name": "MobilenetV2/expanded_conv_7/expand/Conv2D_weights", "shape": [1, 1, 32, 192], "dtype": "float32"}, {"name": "MobilenetV2/expanded_conv_7/expand/Conv2D_bn_offset", "shape": [192], "dtype": "float32"}, {"name": "MobilenetV2/expanded_conv_12/depthwise/BatchNorm/FusedBatchNorm/Offset", "shape": [288], "dtype": "float32"}, {"name": "MobilenetV2/expanded_conv_7/project/Conv2D_weights", "shape": [1, 1, 192, 32], "dtype": "float32"}, {"name": "MobilenetV2/expanded_conv_7/project/Conv2D_bn_offset", "shape": [32], "dtype": "float32"}, {"name": "MobilenetV2/expanded_conv_8/expand/Conv2D_weights", "shape": [1, 1, 32, 192], "dtype": "float32"}, {"name": "MobilenetV2/expanded_conv_8/expand/Conv2D_bn_offset", "shape": [192], "dtype": "float32"}, {"name": "MobilenetV2/expanded_conv_8/project/Conv2D_weights", "shape": [1, 1, 192, 32], "dtype": "float32"}, {"name": "MobilenetV2/expanded_conv_11/depthwise/BatchNorm/FusedBatchNorm/Scaled", "shape": [288], "dtype": "float32"}, {"name": "MobilenetV2/expanded_conv_8/project/Conv2D_bn_offset", "shape": [32], "dtype": "float32"}, {"name": "MobilenetV2/expanded_conv_9/expand/Conv2D_weights", "shape": [1, 1, 32, 192], "dtype": "float32"}, {"name": "MobilenetV2/expanded_conv_9/expand/Conv2D_bn_offset", "shape": [192], "dtype": "float32"}, {"name": "MobilenetV2/expanded_conv_9/project/Conv2D_weights", "shape": [1, 1, 192, 32], "dtype": "float32"}, {"name": "MobilenetV2/expanded_conv_11/depthwise/BatchNorm/FusedBatchNorm/Offset", "shape": [288], "dtype": "float32"}, {"name": "MobilenetV2/expanded_conv_9/project/Conv2D_bn_offset", "shape": [32], "dtype": "float32"}, {"name": "MobilenetV2/expanded_conv_10/expand/Conv2D_weights", "shape": [1, 1, 32, 192], "dtype": "float32"}, {"name": "MobilenetV2/expanded_conv_10/expand/Conv2D_bn_offset", "shape": [192], "dtype": "float32"}, {"name": "MobilenetV2/expanded_conv_10/project/Conv2D_weights", "shape": [1, 1, 192, 48], "dtype": "float32"}, {"name": "MobilenetV2/expanded_conv_10/project/Conv2D_bn_offset", "shape": [48], "dtype": "float32"}, {"name": "MobilenetV2/expanded_conv_11/expand/Conv2D_weights", "shape": [1, 1, 48, 288], "dtype": "float32"}, {"name": "MobilenetV2/expanded_conv_10/depthwise/BatchNorm/FusedBatchNorm/Scaled", "shape": [192], "dtype": "float32"}, {"name": "MobilenetV2/expanded_conv_11/expand/Conv2D_bn_offset", "shape": [288], "dtype": "float32"}, {"name": "MobilenetV2/expanded_conv_11/project/Conv2D_weights", "shape": [1, 1, 288, 48], "dtype": "float32"}, {"name": "MobilenetV2/expanded_conv_11/project/Conv2D_bn_offset", "shape": [48], "dtype": "float32"}, {"name": "MobilenetV2/expanded_conv_12/expand/Conv2D_weights", "shape": [1, 1, 48, 288], "dtype": "float32"}, {"name": "MobilenetV2/expanded_conv_10/depthwise/BatchNorm/FusedBatchNorm/Offset", "shape": [192], "dtype": "float32"}, {"name": "MobilenetV2/expanded_conv_12/expand/Conv2D_bn_offset", "shape": [288], "dtype": "float32"}, {"name": "MobilenetV2/expanded_conv_12/project/Conv2D_weights", "shape": [1, 1, 288, 48], "dtype": "float32"}, {"name": "MobilenetV2/expanded_conv_12/project/Conv2D_bn_offset", "shape": [48], "dtype": "float32"}, {"name": "MobilenetV2/expanded_conv_13/expand/Conv2D_weights", "shape": [1, 1, 48, 288], "dtype": "float32"}, {"name": "MobilenetV2/expanded_conv_13/expand/Conv2D_bn_offset", "shape": [288], "dtype": "float32"}, {"name": "MobilenetV2/expanded_conv_9/depthwise/BatchNorm/FusedBatchNorm/Scaled", "shape": [192], "dtype": "float32"}, {"name": "MobilenetV2/expanded_conv_13/project/Conv2D_weights", "shape": [1, 1, 288, 80], "dtype": "float32"}, {"name": "MobilenetV2/expanded_conv_13/project/Conv2D_bn_offset", "shape": [80], "dtype": "float32"}, {"name": "MobilenetV2/expanded_conv_14/expand/Conv2D_weights", "shape": [1, 1, 80, 480], "dtype": "float32"}, {"name": "MobilenetV2/expanded_conv_14/expand/Conv2D_bn_offset", "shape": [480], "dtype": "float32"}, {"name": "MobilenetV2/expanded_conv_9/depthwise/BatchNorm/FusedBatchNorm/Offset", "shape": [192], "dtype": "float32"}, {"name": "MobilenetV2/expanded_conv_14/project/Conv2D_weights", "shape": [1, 1, 480, 80], "dtype": "float32"}, {"name": "MobilenetV2/expanded_conv_14/project/Conv2D_bn_offset", "shape": [80], "dtype": "float32"}, {"name": "MobilenetV2/expanded_conv_15/expand/Conv2D_weights", "shape": [1, 1, 80, 480], "dtype": "float32"}, {"name": "MobilenetV2/expanded_conv_15/expand/Conv2D_bn_offset", "shape": [480], "dtype": "float32"}, {"name": "MobilenetV2/expanded_conv_15/project/Conv2D_weights", "shape": [1, 1, 480, 80], "dtype": "float32"}, {"name": "MobilenetV2/expanded_conv_8/depthwise/BatchNorm/FusedBatchNorm/Scaled", "shape": [192], "dtype": "float32"}, {"name": "MobilenetV2/expanded_conv_15/project/Conv2D_bn_offset", "shape": [80], "dtype": "float32"}, {"name": "MobilenetV2/expanded_conv_16/expand/Conv2D_weights", "shape": [1, 1, 80, 480], "dtype": "float32"}, {"name": "MobilenetV2/expanded_conv_16/expand/Conv2D_bn_offset", "shape": [480], "dtype": "float32"}, {"name": "MobilenetV2/expanded_conv_16/project/Conv2D_weights", "shape": [1, 1, 480, 160], "dtype": "float32"}, {"name": "MobilenetV2/expanded_conv_8/depthwise/BatchNorm/FusedBatchNorm/Offset", "shape": [192], "dtype": "float32"}, {"name": "MobilenetV2/expanded_conv_16/project/Conv2D_bn_offset", "shape": [160], "dtype": "float32"}, {"name": "aspp0/Conv2D_weights", "shape": [1, 1, 160, 256], "dtype": "float32"}, {"name": "aspp0/Conv2D_bn_offset", "shape": [256], "dtype": "float32"}, {"name": "image_pooling/Conv2D_weights", "shape": [1, 1, 160, 256], "dtype": "float32"}, {"name": "image_pooling/Conv2D_bn_offset", "shape": [256], "dtype": "float32"}, {"name": "MobilenetV2/expanded_conv_7/depthwise/BatchNorm/FusedBatchNorm/Scaled", "shape": [192], "dtype": "float32"}, {"name": "concat_projection/Conv2D_weights", "shape": [1, 1, 512, 256], "dtype": "float32"}, {"name": "concat_projection/Conv2D_bn_offset", "shape": [256], "dtype": "float32"}, {"name": "MobilenetV2/expanded_conv_7/depthwise/BatchNorm/FusedBatchNorm/Offset", "shape": [192], "dtype": "float32"}, {"name": "MobilenetV2/expanded_conv_16/depthwise/BatchNorm/FusedBatchNorm/Scaled", "shape": [480], "dtype": "float32"}, {"name": "MobilenetV2/expanded_conv_16/depthwise/BatchNorm/FusedBatchNorm/Offset", "shape": [480], "dtype": "float32"}, {"name": "MobilenetV2/expanded_conv_15/depthwise/BatchNorm/FusedBatchNorm/Scaled", "shape": [480], "dtype": "float32"}]}]}